assignments/reference/best_cnn_low_wd_and_hf.pth (torch, 658281 bytes, 20 tensors)

weight f4 [6, 3, 3, 3]
0	0x3e5acfda	0.21368352
1	0x3df450cb	0.119294725
2	0x3c3d6ca6	0.011561548
3	0x3e03c66f	0.12868665
4	0xbbf0d6be	-0.007349818
5	0xbdacbeda	-0.084348395
6	0x3d5c8c13	0.053844523
7	0xbd2229e2	-0.039590724
8	0xbd8cf980	-0.06883526
9	0x3deceecd	0.11568985
10	0xbd3edb57	-0.046595898
11	0xbe2dd094	-0.16974097
12	0x3ced5039	0.028968917
13	0xbe456be3	-0.19279437
14	0xbe9394bf	-0.28824422
15	0xbbc219d4	-0.005923489
16	0xbe31738d	-0.17329235
17	0xbe62cc8d	-0.22148342
18	0x3e77f196	0.24213251
19	0xbbcf0f91	-0.0063189943
20	0xbe1c9e55	-0.15294774
21	0x3decaae7	0.115560345
22	0xbe54377f	-0.20724295
23	0xbeaa226f	-0.33229396
24	0x3db844b1	0.08997477
25	0xbe153b3f	-0.14573382
26	0xbe67a29f	-0.22620629
27	0x3bc50246	0.006012234
28	0xbe937e33	-0.2880722
29	0xbe464ff0	-0.19366431
30	0x3e81483b	0.2525042
31	0x3c74a69d	0.014932302
32	0xbe82613f	-0.25464818
33	0x3de6f2d9	0.11276788
34	0x3e6e3c44	0.23265177
35	0xbda406ee	-0.08009134
36	0x3d3facc8	0.046795636
37	0xbeac5c5d	-0.33664218
38	0xbe892a5f	-0.2679014
39	0x3e87bbf9	0.265106
40	0xbc81c40f	-0.015840558
41	0xbe90ebce	-0.28304905
42	0x3dd11516	0.102091
43	0x3e84649d	0.25858012
44	0xbcbf6057	-0.023361368
45	0x3db1c5ef	0.08680331
46	0xbec3e97c	-0.38264072
47	0xbec40b5c	-0.38289917
48	0x3eb6164c	0.35563886
49	0x3c291907	0.010320908
50	0xbe9e9411	-0.3097234
51	0x3e75d01e	0.24005172
52	0x3ec08351	0.37600186
53	0x3dc3fdb4	0.095698744
54	0x3e3f2619	0.18666877
55	0x3e3b4bcc	0.18290633
56	0x3e0c71b2	0.13715246
57	0x3d8721d7	0.06598251
58	0x3dec5816	0.115402386
59	0x3dd986ca	0.10621412
60	0xbd4e270a	-0.0503302
61	0x3c98114c	0.018562935
62	0x3d976896	0.07392995
63	0x3e293d05	0.16527183
64	0x3e23c3ef	0.15992711
65	0x3e058aa9	0.13041176
66	0x3d82f754	0.0639483
67	0x3de45fbf	0.111510746
68	0x3dd34ee4	0.103177816
69	0xbd3e0b01	-0.046397213
70	0x3c3b5853	0.011434632
71	0x3d87c15d	0.06628678
72	0x3e2c28a7	0.16812383
73	0x3e2299b3	0.15878944
74	0x3df2119f	0.11819767
75	0x3d9d8a05	0.07692341
76	0x3defadd6	0.117030784
77	0x3dd54123	0.104128145
78	0xbd02d65d	-0.031942714
79	0x3c9f4ee7	0.019446803
80	0x3d7f7b34	0.062373355
81	0xbd995ed9	-0.07488794
82	0xbcc7d888	-0.024395242
83	0xbceada49	-0.02866854
84	0xbca4bb6f	-0.020108907
85	0x3c525a3d	0.012838897
86	0xbd2676cc	-0.040640637
87	0x3d792370	0.06082481
88	0x3d828f0d	0.06374941
89	0x3aa8d6b4	0.0012881369
90	0xbdd550f2	-0.1041583
91	0xbd0b13a3	-0.033954274
92	0xbd946ecf	-0.072476976
93	0xbd763d64	-0.06011714
94	0xbd0f30b5	-0.03495856
95	0xbe1a9446	-0.15095624
96	0xbcc599c1	-0.024121167
97	0xbd814d80	-0.0631361
98	0xbe510d6c	-0.20415276
99	0x3e327328	0.17426741
100	0x3e935c5a	0.28781396
101	0x3e362643	0.17788033
102	0x3e4cdf56	0.20007071
103	0x3e73c727	0.2380644
104	0x3cca628c	0.024705194
105	0x3e1ca26a	0.15296331
106	0x3de4a355	0.111639656
107	0xbe061b54	-0.13096362
108	0x3e6d4f66	0.2317482
109	0x3e9ac2d9	0.30226782
110	0xbd80d940	-0.06291437
111	0x3e12e4fa	0.1434516
112	0xbe519fbd	-0.20471092
113	0xbe887597	-0.26652214
114	0xbe4baff2	-0.19891337
115	0xbe491e66	-0.19640502
116	0x3de29eaa	0.11065419
117	0x3e999163	0.29993734
118	0x3ea86fd6	0.32897824
119	0xbd0df2a1	-0.034655217
120	0x3e53fb4b	0.2070133
121	0xbe4847ea	-0.19558683
122	0xbe87c7e2	-0.26519686
123	0xbe11591a	-0.14194146
124	0xbe3c8b76	-0.18412575
125	0x3de54f4d	0.11196766
126	0x3e2cd333	0.16877441
127	0x3e6fb1b5	0.23407634
128	0xbd7cd6c9	-0.061728273
129	0x3deb5dfc	0.114925355
130	0xbe70fdd8	-0.23534334
131	0xbe8a285d	-0.2698392
132	0xbe131c0d	-0.1436617
133	0xbe1c8541	-0.15285207
134	0x3e22bb99	0.15891875
135	0x3d1c1c68	0.038113028
136	0x3c0f1335	0.008732607
137	0x3d27f7d9	0.04100785
138	0xbc65bb44	-0.014021698
139	0xbd26e470	-0.0407452
140	0x3c34a677	0.011026016
141	0x3c4a281b	0.012338663
142	0x3bfa9651	0.0076473136
143	0x3d7c8d38	0.061658114
144	0xbde2f0d7	-0.11081093
145	0xbe1615d0	-0.14656758
146	0xbdbd0630	-0.09229696
147	0xbe24e98b	-0.16104715
148	0xbe4da2b5	-0.20081599
149	0xbdfeeeec	-0.124479145
150	0xbdd18fcd	-0.10232506
151	0xbde86408	-0.113472044
152	0xbd22da9f	-0.039759275
153	0xbd7f85c8	-0.062383443
154	0xbdf0eebc	-0.11764285
155	0xbd1f8bcf	-0.03895169
156	0xbdde4653	-0.10853257
157	0xbe366530	-0.17812037
158	0xbdbae832	-0.09126319
159	0xbcb0a6be	-0.021563884
160	0xbd54525c	-0.051836357
161	0x3c3e615c	0.011619892

bias f4 [6]
0	0x3db4ec52	0.08834137
1	0x3e286672	0.1644533
2	0x3c43face	0.011961652
3	0x3e3cd3e7	0.1844021
4	0x3d6be569	0.05759183
5	0xbd46cab1	-0.048533145

weight f4 [16, 6, 3, 3]
0	0x3e002b00	0.12516403
1	0xbdfa3b3c	-0.12218329
2	0x3d4eb051	0.050461117
3	0xbd9107fb	-0.070816
4	0xbd16a97a	-0.03678272
5	0x3e8d8599	0.2764099
6	0xbe1783e1	-0.14796402
7	0xbd1302ce	-0.035891347
8	0x3e094c23	0.1340795
9	0x3d05cc6d	0.03266566
10	0xbdea36ff	-0.11436271
11	0xbdd5ed6e	-0.10445677
12	0xbd385588	-0.045003444
13	0xbe3d86f1	-0.18508507
14	0xbcddf397	-0.027093692
15	0xbb20ed22	-0.0024555405
16	0xbdc51300	-0.096227646
17	0x3de85541	0.11344386
18	0xbdd7b491	-0.10532487
19	0xbe0920c5	-0.13391407
20	0x3ac9756d	0.0015370079
21	0xbded698b	-0.11592396
22	0x3bc10d53	0.005891481
23	0x3d131f79	0.035918687
24	0xbd9ba447	-0.07599693
25	0x3d74935b	0.05971084
26	0x3caeb599	0.021326827
27	0xbc8162a0	-0.015794098
28	0x3d5317d3	0.051536392
29	0x3e3b1a5e	0.18271777
30	0xbcc1022a	-0.023560602
31	0x3de05d1e	0.10955261
32	0x3dc4c268	0.096073925
33	0xbc445085	-0.011982088
34	0x3d37f886	0.044914745
35	0xbc5ab346	-0.013348406
36	0x3e7b9f4e	0.24572489
37	0xbd33ea2d	-0.0439245
38	0x3dc7555d	0.09733079
39	0x3ad21534	0.0016028048
40	0x3d08c114	0.03338726
41	0x3e5d5afd	0.2161674
42	0xbde76fd0	-0.113006234
43	0xbcce2bcb	-0.025167366
44	0x3bc1c204	0.005913021
45	0x3cb7624b	0.022385737
46	0x3d43288c	0.04764609
47	0xbd6bb2e1	-0.05754364
48	0xbc7a862a	-0.015290776
49	0xbd762bdd	-0.060100425
50	0x3c3ef29a	0.01165452
51	0xbdc4e224	-0.096134454
52	0xbd7ee046	-0.062225603
53	0x3c37ea97	0.011225364
54	0x3da68772	0.08131303
55	0x3d640ed6	0.05567821
56	0x3d831856	0.06401126
57	0x3d710458	0.058842033
58	0x3d42353b	0.047414046
59	0x3c88eb76	0.016713839
60	0x3dd0991e	0.10185455
61	0x3d26040b	0.0405312
62	0x3d2f5059	0.042801235
63	0xbc2d1c13	-0.010565775
64	0xbd91fbea	-0.07128127
65	0xbe0bf425	-0.13667352
66	0xbd0a777f	-0.033805367
67	0x3ba5eeb0	0.005063854
68	0x3d455928	0.04818073
69	0xbd172dee	-0.036909036
70	0x3ce034d3	0.027368939
71	0x3dfd5c23	0.12371089
72	0x3d639e44	0.055570856
73	0x3d85c0c6	0.06530909
74	0x3df43f2c	0.119261116
75	0xbcad501e	-0.021156367
76	0xbd8ba14c	-0.06817874
77	0x3cdd3607	0.027003301
78	0xbd779341	-0.060443167
79	0xbd75dbf7	-0.060024228
80	0xbd24b017	-0.040206995
81	0xbdc37cff	-0.095453255
82	0xbe09649b	-0.13417284
83	0xbdc02b40	-0.09383249
84	0xbdc6c8bb	-0.09706255
85	0xbe0a5dc5	-0.13512333
86	0xbdd49d84	-0.10381606
87	0xbd8eff55	-0.069822945
88	0xbdaee6e5	-0.085401334
89	0xbd82056f	-0.063486926
90	0x3e0db1b1	0.13837315
91	0x3dfc8884	0.12330726
92	0x3e1d7d55	0.15379842
93	0x3d723a0a	0.05913738
94	0xbd0c3c0d	-0.034236956
95	0xbd8c4f8f	-0.06851112
96	0x3d7c3552	0.061574288
97	0xbd38353a	-0.044972636
98	0xbd6e142b	-0.058124702
99	0x3cf443a4	0.02981741
100	0x3dade32a	0.08490594
101	0x3d9e5b99	0.077323146
102	0x3cf5b2e9	0.029992538
103	0x3d6fd330	0.058551013
104	0x3db2df55	0.087340035
105	0x3c903694	0.01760415
106	0x3d8dba2a	0.069202736
107	0x3db4f93e	0.08836602
108	0xbe0061d3	-0.12537317
109	0xbdbf83b2	-0.09351291
110	0xbdb77792	-0.08958353
111	0xbd25d8d3	-0.040489983
112	0xbd5ddd8d	-0.054166365
113	0xbd661054	-0.056167915
114	0x3cc4d90d	0.02402928
115	0xbb05fe92	-0.0020445925
116	0x3d239bdb	0.039943557
117	0x3df14c67	0.11782151
118	0xbd0a04ab	-0.033695858
119	0xbd854fcb	-0.0650936
120	0x3e48277d	0.19546314
121	0x3e29ce4f	0.16582607
122	0x3d7cafa2	0.061690934
123	0x3d055c5f	0.032558795
124	0x3e0d0b9e	0.13773963
125	0x3e2d4351	0.1692021
126	0xbd999b46	-0.07500319
127	0xbd8267e9	-0.063674755
128	0x3ce053ef	0.027383773
129	0x3d8fc504	0.070199996
130	0xbd11a27b	-0.035555344
131	0xbd8e9fa1	-0.069640405
132	0x3dab8533	0.08375015
133	0x3d90d061	0.07070995
134	0xbdee6ae7	-0.11641484
135	0x3d801f7d	0.06256006
136	0xbd387ead	-0.045042682
137	0xbdeb33e0	-0.11484504
138	0x3d91c961	0.07118488
139	0xbc99ea69	-0.018788533
140	0xbdb72c39	-0.08943982
141	0x3c760523	0.015015873
142	0xbca2d811	-0.01987842
143	0xbd898a69	-0.06715853
144	0xbdf5245c	-0.119698256
145	0xbdf79920	-0.12089753
146	0xbe0de7c7	-0.13857947
147	0xbc4fad13	-0.012675541
148	0xbdb4d3f6	-0.08829491
149	0xbd82dc7a	-0.06389709
150	0x3d92dc4a	0.07170923
151	0x3d607ac9	0.054804597
152	0x3d3dde8d	0.04635482
153	0xbc6e7a98	-0.014555596
154	0xbd1867c1	-0.037208322
155	0xbd12e63e	-0.035864107
156	0xbd300e1d	-0.04298221
157	0xbd1db70d	-0.03850465
158	0xbba2b03f	-0.004964858
159	0x3c9f44f9	0.019442068
160	0xbcbfbd7d	-0.023405785
161	0xbce02b93	-0.027364528
162	0xbd1e638c	-0.038669154
163	0x3dee2e9f	0.11629986
164	0x3eb4bd71	0.35300782
165	0xbda2748b	-0.07932385
166	0xbc087c3a	-0.008330399
167	0xbd924e07	-0.07143789
168	0xbcb68f43	-0.02228511
169	0xbdb3faa7	-0.087880425
170	0xbe3d5d55	-0.18492635
171	0xbda4baab	-0.080434166
172	0x3e148556	0.14503989
173	0x3e1cb9e7	0.15305291
174	0xbe19aa6b	-0.15006416
175	0x3e2f8be0	0.17143202
176	0x3e4cdc76	0.20005974
177	0xbe0026e2	-0.12514833
178	0x3c214a06	0.009844309
179	0xbdeff8e2	-0.117173925
180	0xbd85dff2	-0.06536855
181	0xbd871c02	-0.06597139
182	0xbc44bd36	-0.012008002
183	0xbcc9fcc4	-0.02465666
184	0xbbe463b8	-0.006969895
185	0xbdae2316	-0.08502786
186	0x3d1d4fec	0.038406298
187	0x3d7b30e3	0.06132592
188	0xbd20801d	-0.03918468
189	0xbbb6ce00	-0.0055787563
190	0x3d63ca73	0.055612992
191	0xbd126b38	-0.035746783
192	0x3c5414a3	0.012944373
193	0x3d04abab	0.032390278
194	0xbd175324	-0.036944523
195	0xbd3f1e97	-0.046660032
196	0x3cc7fe40	0.024413228
197	0x3cc7373e	0.024318334
198	0xbcc4e75d	-0.024036104
199	0xbb96e4dd	-0.0046049193
200	0x3e428f81	0.19000055
201	0xbdb7f7b7	-0.08982795
202	0xbd2dd26b	-0.042437
203	0xbde97087	-0.11398416
204	0xbdc4414e	-0.095827684
205	0xbe4e7914	-0.20163375
206	0xbe0ff7ac	-0.14059323
207	0x3c600ec7	0.013675398
208	0x3c7cab8b	0.015421758
209	0x3e2371f9	0.15961446
210	0xbd296b32	-0.041361995
211	0xbce36874	-0.027759768
212	0x3d542396	0.05179175
213	0xbcaaac2a	-0.020834047
214	0xbd096fb7	-0.033553805
215	0xbd61a2e1	-0.055086974
216	0x3cea3e2d	0.0285941
217	0x3cd61d19	0.026136922
218	0x3bf59071	0.0074940254
219	0x3c617303	0.013760331
220	0xbcf3be1e	-0.02975374
221	0xbdf4da0a	-0.1195565
222	0xbd0d7a04	-0.03454019
223	0x3d9239f6	0.071399614
224	0x3dcf5b3d	0.10124824
225	0xbd84e918	-0.064897716
226	0xbcb6b09b	-0.022301009
227	0xbcde69f8	-0.02715014
228	0x3dc286a4	0.09498337
229	0x3e02efbd	0.12786765
230	0x3c6fc9f0	0.014635548
231	0x3d84a984	0.06477645
232	0xbd52b4e1	-0.05144203
233	0xbd78efed	-0.060775686
234	0xbdae35cd	-0.085063554
235	0xbe03db56	-0.12876639
236	0xbdd0d2f1	-0.10196484
237	0xbe0d39b2	-0.1379154
238	0xbe18edad	-0.14934416
239	0xbcb8d1f2	-0.022561047
240	0xbcb170af	-0.021660177
241	0x3cc21ecd	0.023696328
242	0x3e034df1	0.12822701
243	0xbcffd852	-0.03123108
244	0xbd0d6df9	-0.034528706
245	0x3c8deb83	0.017324215
246	0xbd4a6242	-0.049410112
247	0xbb88111e	-0.004152431
248	0x3dc56286	0.096379325
249	0x3d383936	0.044976436
250	0x3dcc7e04	0.09984973
251	0x3e0547ef	0.13015722
252	0x3d3ee947	0.04660919
253	0x3d035cfb	0.032071095
254	0x3d873049	0.066010065
255	0x3e033372	0.12812594

bias f4 [16]
0	0x3e0018ff	0.12509535
1	0xbdffb2eb	-0.12485298
2	0x3e09f476	0.1347216
3	0xbdca91ed	-0.098911144
4	0x3e1040cc	0.14087218
5	0xbd345692	-0.044027872
6	0x3db2bd2e	0.087274894
7	0xbd7febec	-0.062480852
8	0x3e0b465f	0.13601063
9	0xbd59975b	-0.05312286
10	0x3db5086a	0.088394955
11	0x3d189697	0.03725299
12	0x3d55f0b8	0.05223152
13	0x3c7e0b3c	0.015505608
14	0x3d8a2dc2	0.06747009
15	0xbdf9ccdd	-0.12197278

weight f4 [120, 576]
0	0x3a65513e	0.0008747763
1	0xbb9bb24b	-0.004751479
2	0x3bea007b	0.0071411706
3	0x3c1da94f	0.009622886
4	0x3bd8fbfe	0.0066218367
5	0x3c51fd5d	0.012816754
6	0x3b0dc348	0.002163129
7	0xbbcde278	-0.0062831007
8	0x3c0789a3	0.008272561
9	0x3c320a72	0.010866748
10	0x3bb7758c	0.0055987295
11	0x3c87c02b	0.016571125
12	0x3bb71d71	0.0055882265
13	0xbbb87991	-0.005629726
14	0x3bae75de	0.0053241095
15	0xba988bed	-0.0011638381
16	0x3c49f1d3	0.012325722
17	0x3c612327	0.013741291
18	0x3beeeff4	0.0072917882
19	0x3c0ca4c8	0.008584209
20	0xbae8abae	-0.001775136
21	0xbc147f5d	-0.009063569
22	0xbb515e0a	-0.003194692
23	0x3b84c8b9	0.0040522483
24	0x3baedb42	0.005336196
25	0xbc0ae9ed	-0.008478624
26	0xbbd520ca	-0.006504153
27	0xbbbb36f5	-0.0057133385
28	0xb9f5284c	-0.00046760065
29	0x3b8b4d30	0.004251145
30	0x3a07b93e	0.00051774445
31	0xbb7fe3c9	-0.0039045683
32	0x39fd1c17	0.0004827685
33	0x3a365ed0	0.0006956877
34	0x3be8b642	0.007101805
35	0x3bc7e16a	0.0060998695
36	0xbac863f2	-0.0015288575
37	0x3726e59a	9.947829e-06
38	0xbab011e5	-0.0013433067
39	0xbb18f9e3	-0.0023342303
40	0xbc1ae9cc	-0.009455156
41	0x398d53a1	0.00026955924
42	0x3ae2c6e0	0.0017301701
43	0x3c5646be	0.01307839
44	0xbc51ab3e	-0.012797175
45	0xbc1a2aed	-0.009409648
46	0x3b028c00	0.0019919872
47	0xbb8664b8	-0.004101362
48	0x3c79ec8f	0.015254154
49	0x3c571d57	0.013129554
50	0x3900752b	0.0001225068
51	0xbc211205	-0.009830956
52	0xbc17d5e9	-0.009267309
53	0xbbedfce3	-0.0072628125
54	0x3c229c47	0.009924955
55	0x3ab5ff2f	0.0013885255
56	0xbbd5915f	-0.0065175737
57	0xbc578579	-0.013154381
58	0xbc72427c	-0.014786359
59	0xbc56bde9	-0.013106802
60	0x3c1d18af	0.009588405
61	0x3bf5baeb	0.007499089
62	0xbc0f78d4	-0.008756835
63	0xbc42d420	-0.011891395
64	0xbc83ee21	-0.01610476
65	0xbc48df08	-0.012260206
66	0x3c046055	0.008079608
67	0x3bb4b7d1	0.0055150767
68	0x3ac3ab5d	0.001492839
69	0xbaa6bff5	-0.0012722003
70	0xbc82a9b3	-0.01595006
71	0xbc37c4f3	-0.01121639
72	0x3b0f098b	0.0021825756
73	0x3c217660	0.009854883
74	0xbbda0e15	-0.0066545107
75	0x3b02aad2	0.0019938243
76	0x3bd24134	0.006416464
77	0xbb9ca00f	-0.0047798227
78	0x3bbc41a9	0.005745132
79	0x3a119bca	0.00055545254
80	0xbc5c797d	-0.013456699
81	0x3bb9d609	0.005671267
82	0x3c3ad82a	0.011404077
83	0x3bd16af9	0.006390926
84	0xbb83b6e4	-0.004019605
85	0x3b5213b1	0.0032055194
86	0x39f49e5b	0.0004665729
87	0xbbc1ed3b	-0.0059181727
88	0xbab1c380	-0.0013562292
89	0x3ae12150	0.0017176066
90	0x3abba2b3	0.0014315456
91	0x3a9ea1d8	0.0012102677
92	0xbaf277e8	-0.001849887
93	0xbaecbee8	-0.0018062266
94	0x3acab0bb	0.0015464047
95	0xbb5b8b8c	-0.0033499924
96	0x3b2593dc	0.0025265133
97	0xba0b39c2	-0.0005311036
98	0xb9e33bb2	-0.0004334129
99	0x3bf70b53	0.0075391917
100	0xb905cd06	-0.00012760246
101	0xbac3788c	-0.0014913245
102	0x3b24da69	0.0025154597
103	0x3c364159	0.0111239785
104	0xba28dce4	-0.00064416067
105	0x3b5c8374	0.0033647688
106	0xb9ec24ec	-0.00045040937
107	0xbc01d1c4	-0.007923547
108	0x3c1a5646	0.009419983
109	0x3be6cecf	0.0070436965
110	0x3c747496	0.014920374
111	0x3ba4d5fc	0.0050303917
112	0x3ba95839	0.0051679877
113	0xbbb034f8	-0.005377408
114	0xbc80ec25	-0.015737602
115	0xbc35ea81	-0.011103273
116	0xbb7decf1	-0.0038745964
117	0x3c03d403	0.008046153
118	0x3bcebcba	0.006309119
119	0x3c0a1918	0.008428834
120	0xbbc43b04	-0.0059884805
121	0xbc537b56	-0.012907824
122	0xbcad99db	-0.021191528
123	0xbaabba7c	-0.0013101841
124	0xbbdfec4a	-0.006833588
125	0x3c92e94f	0.017933516
126	0xbb26cebe	-0.0025452818
127	0xbc53737e	-0.012905953
128	0xbbfb32ba	-0.007665959
129	0xbc464e0e	-0.012103571
130	0xbccb6207	-0.024827017
131	0xbbb163c1	-0.005413503
132	0xbbbe658f	-0.0058104466
133	0xbc46ef80	-0.012142062
134	0xbc7fdfaf	-0.015617295
135	0xbc2d44ce	-0.010575486
136	0xbc3d4879	-0.011552923
137	0x3bab261d	0.0052230493
138	0xbbae0761	-0.005310938
139	0xbab8b9d8	-0.0014093472
140	0x39580e31	0.00020604652
141	0xbbf98b33	-0.007615471
142	0xbc1d5bc4	-0.009604398
143	0xbb2c006a	-0.0026245364
144	0xb9457339	-0.00018830308
145	0xb8dd6ee1	-0.00010558754
146	0x3b69c899	0.0035672544
147	0x3c186abd	0.009302792
148	0x3c06253b	0.008187587
149	0x3bb9e9eb	0.005673637
150	0x3b49314e	0.0030699554
151	0x3bd09b39	0.00636616
152	0xb801465e	-3.082153e-05
153	0xbbe662f1	-0.0070308377
154	0xbb8fd467	-0.004389334
155	0x3c03d792	0.008047001
156	0x3c1e70a3	0.009670409
157	0x3c105f33	0.00881176
158	0x3a72e490	0.0009265626
159	0xbba6e5d8	-0.0050933175
160	0xbb7eeb09	-0.0038897416
161	0x3b6620a2	0.0035114666
162	0x3c6bf0b4	0.01440065
163	0x3b9231f2	0.0044615204
164	0xbb901480	-0.004396975
165	0x3a194caa	0.00058479107
166	0xbc1a6914	-0.009424467
167	0x3b5d1365	0.0033733484
168	0x3bdbcd80	0.006707847
169	0x3b1a83a1	0.0023576992
170	0x3b1793f6	0.0023128963
171	0x3b711600	0.0036786795
172	0xbc40c1b6	-0.011764934
173	0xba40e9f0	-0.0007359078
174	0x3af27be8	0.0018500062
175	0x3b2f150a	0.002671542
176	0xbbaaea54	-0.0052159224
177	0x3b2278ae	0.002479117
178	0x3b6cbac5	0.0036122066
179	0x3b88df0a	0.004176979
180	0x3a42a0a8	0.00074244523
181	0x3c136c2a	0.008997956
182	0x3b6b54ba	0.0035908655
183	0x3aa4a30d	0.00125608
184	0xbb03ca06	-0.002010943
185	0xbb846191	-0.004039951
186	0x3c1f1752	0.00971015
187	0xbb1d8086	-0.0024032905
188	0xbc5254ff	-0.012837647
189	0xbc3a2073	-0.011360276
190	0x3addb62f	0.0016915257
191	0xbb8227b6	-0.003972019
192	0x3ba4d628	0.005030412
193	0xbb503ace	-0.0031773332
194	0x3b261f12	0.002534811
195	0xbc8ef687	-0.017451538
196	0xbc30cb7a	-0.0107907
197	0xbc019dba	-0.00791114
198	0x3b5c7eec	0.0033644987
199	0x3bafeb86	0.0053686528
200	0xbb8df091	-0.0043316563
201	0xbc354f62	-0.01106629
202	0xbc639073	-0.01388942
203	0xba244c49	-0.0006267471
204	0x3a7f373c	0.00097357086
205	0xba3bca87	-0.0007163663
206	0x39a918f3	0.0003225278
207	0xbbfb282a	-0.0076647
208	0xbc0497d6	-0.008092841
209	0xbb24006e	-0.002502467
210	0x3c8026dc	0.01564353
211	0x3b957e97	0.00456221
212	0x3bfe949f	0.007769182
213	0x3c232156	0.009956678
214	0x3b0d7bc8	0.0021588672
215	0xbb90736b	-0.00440829
216	0xba7669e3	-0.00093999336
217	0xbc1b8194	-0.009491343
218	0x3b0f6622	0.0021880944
219	0x3c448f5d	0.011997071
220	0xbb1871de	-0.002326123
221	0xbc34c235	-0.011032631
222	0xbaa48796	-0.0012552615
223	0xbc22477e	-0.00990474
224	0x396183c8	0.00021506764
225	0xbaeb1dc4	-0.0017937948
226	0xbb0219aa	-0.0019851723
227	0xbaa44339	-0.0012532241
228	0xbb92fff4	-0.0044860784
229	0x3b22ef74	0.0024861963
230	0xbb8940dd	-0.0041886405
231	0xbc120037	-0.008911184
232	0xbb599b20	-0.0033204034
233	0xb9edb9f0	-0.00045342697
234	0x3b6bd27d	0.0035983615
235	0x3bec09d2	0.007203319
236	0xbbde6587	-0.0067870053
237	0xbb19021e	-0.002334721
238	0x3902d1cd	0.00012475923
239	0xbb4217f6	-0.0029616333
240	0x3bfa13de	0.007631763
241	0x3b104214	0.0022012042
242	0x3b063df7	0.0020483711
243	0xb99b83c0	-0.00029662065
244	0xbb5d549a	-0.003377235
245	0xbb6bd6fc	-0.0035986295
246	0xb94aa649	-0.00019326167
247	0x3ab9ea95	0.0014184291
248	0x3b73709a	0.0037145973
249	0x39f02873	0.00045806504
250	0x3b3fd403	0.0029270656
251	0x3b4ca2d6	0.0031224987
252	0xb9c14b38	-0.0003686787
253	0xbb884fdc	-0.0041599106
254	0xbbc99025	-0.0061512166
255	0x3a5d1cf7	0.0008434797

bias f4 [120]
0	0x3c807e74	0.015685298
1	0x3d30d5d1	0.04317266
2	0x3ca10310	0.01965478
3	0x3c868169	0.01641913
4	0xbbb47041	-0.005506546
5	0xbbe40946	-0.0069591133
6	0xbd2e7a3f	-0.04259705
7	0x3cbb80a2	0.022888485
8	0x3dc90303	0.098150276
9	0xbb836da2	-0.004010872
10	0xbcb1848d	-0.02166965
11	0x3d86ae60	0.06576228
12	0x368fa42c	4.280844e-06
13	0x3c686531	0.014184282
14	0xbb5462ab	-0.0032407444
15	0x3c6a795b	0.01431116
16	0x3be0d05e	0.006860777
17	0xb8791883	-5.9389055e-05
18	0xbc10e91f	-0.008844643
19	0x3d3bdd53	0.045865368
20	0x3d1d98ae	0.038475685
21	0x3d8397b4	0.064254194
22	0x3be4b2c0	0.0069793165
23	0x3d483747	0.04888084
24	0x3ca2c663	0.019869989
25	0xb89945fc	-7.308644e-05
26	0x3c861b96	0.016370576
27	0xbc7fa4f9	-0.015603297
28	0xb80b3c74	-3.3196484e-05
29	0xb60cbdcc	-2.0972102e-06
30	0x3c850463	0.016237443
31	0x3b68d8bd	0.0035529577
32	0x3c99c268	0.018769458
33	0x3cc4823f	0.023987887
34	0x3c4d427d	0.012528059
35	0x3d416a86	0.04722073
36	0xb8863d83	-6.4010754e-05
37	0x3d8587f2	0.0652007
38	0x3cd77fdc	0.026306085
39	0x3ae89e53	0.001774738
40	0xbad40e3f	-0.0016178562
41	0x3d8e29f5	0.069415964
42	0x3cdf95ef	0.027293174
43	0xb483c21f	-2.4541893e-07
44	0x3c2490ab	0.010044257
45	0x3cb23aca	0.021756548
46	0x3bbb8275	0.005722339
47	0x3d3af549	0.04564408
48	0x3d06590a	0.032799758
49	0x3d1f4b8d	0.03889041
50	0x3dbb6f8d	0.09152136
51	0xbc000392	-0.007813351
52	0xbaeace84	-0.001791433
53	0x3d5e6950	0.054299653
54	0x3d0ec59e	0.03485643
55	0xb78ef42f	-1.7041426e-05
56	0x3c1a9986	0.009436017
57	0xb8a304d4	-7.773345e-05
58	0x3bfa8d8d	0.0076462687
59	0x3bac3e98	0.005256485
60	0xbb5a6423	-0.0033323846
61	0x3c48ed16	0.012263557
62	0xbb0076a0	-0.0019601956
63	0xba0403e3	-0.00050359796
64	0xbbb13a15	-0.0054085352
65	0x3b32abb5	0.002726299
66	0x3cb8412d	0.022492016
67	0x3781c855	1.5471285e-05
68	0x3d681c8c	0.05666785
69	0x37b4f45e	2.1571464e-05
70	0x3c1fe9b3	0.009760308
71	0x3a9a38c3	0.0011766184
72	0xb8bdeb9d	-9.056109e-05
73	0x3c6088bb	0.013704474
74	0x3d915406	0.07096104
75	0x3c226c8b	0.009913574
76	0xb7c80990	-2.384631e-05
77	0x3d59f93f	0.053216215
78	0x3d0d123b	0.034441214
79	0x3bf1e3a8	0.007381875
80	0xb7f267d3	-2.8896995e-05
81	0x3cd1aeea	0.0255961
82	0x3c462cf5	0.0120956795
83	0x3b874d7d	0.0041291104
84	0x3cda0ef0	0.02661845
85	0x391eaeb6	0.00015133139
86	0xb8843c11	-6.305439e-05
87	0x3b2e9ccc	0.0026643751
88	0x3d165cc6	0.03670957
89	0xb8e1afcf	-0.00010761583
90	0x3cec3a6c	0.028836451
91	0xbc4caf6b	-0.012492995
92	0xb81bd387	-3.715188e-05
93	0x398d4bd9	0.00026950127
94	0x3d8110ec	0.06302056
95	0x3d19df5d	0.03756653
96	0xbb9f6a38	-0.004864957
97	0x3d1a3f00	0.037657738
98	0x3c06c60c	0.008225929
99	0x37f47cd1	2.9145189e-05
100	0xba935b50	-0.0011242423
101	0xb613c609	-2.2019979e-06
102	0xb88b35b0	-6.6380366e-05
103	0x3cbb9051	0.022895964
104	0x3c95dbb0	0.018293232
105	0x3d4bfb12	0.049799986
106	0x3cf26d0a	0.02959301
107	0x3d5371f3	0.051622342
108	0x3ca901b5	0.020630697
109	0xb883510c	-6.261663e-05
110	0xb8ff17d9	-0.000121637895
111	0x3bf91c8a	0.007602279
112	0x38a1285f	7.684598e-05
113	0x3d0caf02	0.034346588
114	0x3cd26e22	0.025687281
115	0xba3b9ab5	-0.0007156537
116	0x3bff9d8e	0.0078007644
117	0x3cd050fc	0.025429241
118	0xb7e9b092	-2.7857986e-05
119	0x3ae710ce	0.001762891

weight f4 [84, 120]
0	0x3931e711	0.00016966114
1	0x378e6751	1.697583e-05
2	0x392543b6	0.0001576085
3	0x36b516d7	5.3968793e-06
4	0xb820812a	-3.8267266e-05
5	0x36969785	4.4879876e-06
6	0xb92bfb98	-0.00016401557
7	0x39aad7ef	0.0003258581
8	0x39693645	0.00022240829
9	0xb712a214	-8.740015e-06
10	0xb9858471	-0.00025466413
11	0x3639370b	2.7599187e-06
12	0xb8dce74d	-0.000105335006
13	0xb877e4fa	-5.910264e-05
14	0x3901a456	0.00012363619
15	0xb950fc63	-0.00019930447
16	0xb8c143df	-9.215599e-05
17	0xb8e6e613	-0.00011010109
18	0xb8fe4bf4	-0.00012125811
19	0x3985f4aa	0.00025550026
20	0x37a3c949	1.9524845e-05
21	0x393923c6	0.00017656301
22	0xb7249163	-9.809012e-06
23	0xb8006b82	-3.0617703e-05
24	0x37cc8c13	2.4383922e-05
25	0x37e7bb01	2.7624426e-05
26	0x38ff35cb	0.00012169367
27	0xb9627232	-0.0002159558
28	0xb8ac21d7	-8.207902e-05
29	0x381e8904	3.779774e-05
30	0x394fd326	0.00019819717
31	0x38a6ec42	7.959503e-05
32	0xb98c5610	-0.00026767002
33	0x39137763	0.00014063487
34	0x390bfac0	0.00013349485
35	0x399140ec	0.00027704926
36	0xb8d81afa	-0.000103047074
37	0x391e59ee	0.00015101556
38	0x38ae9787	8.325191e-05
39	0xb90f0697	-0.00013639998
40	0xb94e9f30	-0.00019704993
41	0x39533f42	0.00020146093
42	0xb88af58f	-6.6260916e-05
43	0xb9106c20	-0.0001377319
44	0xb8bb1683	-8.921048e-05
45	0x3947c0fe	0.00019050014
46	0x3681e0b6	3.8706594e-06
47	0x392cabaa	0.00016467148
48	0xb8141d42	-3.5313198e-05
49	0x38bcc723	9.001631e-05
50	0x39b9f431	0.00035467886
51	0xb8838467	-6.2712286e-05
52	0x38e06066	0.00010699108
53	0x38f8bb82	0.000118604876
54	0x39574266	0.00020528733
55	0x3893c358	7.045892e-05
56	0xb8cf5557	-9.886425e-05
57	0xb923d46e	-0.00015624028
58	0xb72a837a	-1.0163401e-05
59	0x3847a920	4.7602807e-05
60	0x385efd4b	5.3164822e-05
61	0xb70b9fdb	-8.322265e-06
62	0x37eec949	2.8465542e-05
63	0xb90926d4	-0.00013079803
64	0xb8b90c80	-8.823816e-05
65	0xb8e1f4d0	-0.00010774436
66	0x387581d3	5.853346e-05
67	0x3899666d	7.314687e-05
68	0x39595360	0.00020725792
69	0xb71d8558	-9.388976e-06
70	0xb898b1b1	-7.2810224e-05
71	0xb90f7e7c	-0.00013684662
72	0xb861b61f	-5.3813794e-05
73	0xb9396509	-0.00017680613
74	0x3825fd19	3.957478e-05
75	0xb90566a4	-0.00012722105
76	0x38f2ae57	0.000115719326
77	0x38a4eeac	7.8645855e-05
78	0x39797b23	0.00023792362
79	0xb8f32221	-0.000115935
80	0x38d4ebe9	0.000101528894
81	0x391891f7	0.00014550226
82	0x388c0651	6.676897e-05
83	0x3786f97b	1.6090218e-05
84	0x367cee3b	3.7689595e-06
85	0x3869ad65	5.5713015e-05
86	0xb70ffef3	-8.582824e-06
87	0x38c0b1b9	9.188377e-05
88	0x38c79a53	9.5178046e-05
89	0x390ffefa	0.00013732529
90	0x390c1490	0.000133591
91	0xb918c3a9	-0.00014568739
92	0xb88a527b	-6.595716e-05
93	0x38b7bf4c	8.761752e-05
94	0x39837afe	0.00025077903
95	0x38d08936	9.9437704e-05
96	0xb847ba3b	-4.7618738e-05
97	0x3930fb5b	0.00016878305
98	0xb97b5946	-0.00023970482
99	0xb91e0961	-0.00015071548
100	0x3927dd14	0.00016008719
101	0x390614aa	0.00012786934
102	0x39036813	0.00012531904
103	0xb872c4df	-5.7880647e-05
104	0x394b9aff	0.00019417329
105	0x39c074e3	0.0003670818
106	0x39219263	0.0001540869
107	0x39745185	0.00023300022
108	0x394f517d	0.00019771415
109	0xb9194168	-0.00014615583
110	0xb8c84bf8	-9.5508934e-05
111	0xb80e3991	-3.390905e-05
112	0xb8c109d2	-9.204786e-05
113	0xb81b82b8	-3.707662e-05
114	0x3918f9e2	0.00014588938
115	0xb908d6d6	-0.00013050003
116	0xb882a152	-6.228931e-05
117	0x386dafb8	5.6668854e-05
118	0x3844627e	4.682177e-05
119	0x3810be8d	3.450974e-05
120	0xb8b0219a	-8.398593e-05
121	0xb7b5271c	-2.1595093e-05
122	0xb8919544	-6.941942e-05
123	0xb8c3b076	-9.331193e-05
124	0x3869a097	5.570109e-05
125	0xb73b1da4	-1.115297e-05
126	0x38f4f2be	0.00011680041
127	0xb8e9e18b	-0.000111523164
128	0x383502ed	4.3156488e-05
129	0xb89f5594	-7.597651e-05
130	0xb88cc6fc	-6.712784e-05
131	0x38edc5c7	0.000113378796
132	0x371e0c99	9.420467e-06
133	0x38e59cf3	0.00010948805
134	0x38b2555e	8.503602e-05
135	0xb87fa031	-6.0945928e-05
136	0x38bc77ad	8.98683e-05
137	0x36d87b48	6.4516535e-06
138	0xb8d751f6	-0.00010267265
139	0x391e1d07	0.00015078868
140	0xb877a407	-5.904215e-05
141	0x38c03f31	9.167044e-05
142	0x392492d7	0.00015694961
143	0x38ba63c1	8.887752e-05
144	0xb8d83346	-0.00010309233
145	0xb9184985	-0.00014523238
146	0xb9254603	-0.00015761708
147	0xb7e5742c	-2.7353024e-05
148	0x39005038	0.00012236915
149	0xb91e100f	-0.00015074036
150	0xb8ab84a5	-8.1786224e-05
151	0xb90f2a5d	-0.00013653324
152	0xb801baef	-3.0930092e-05
153	0xb926619f	-0.0001586736
154	0xb817a8fe	-3.615859e-05
155	0x39134283	0.0001404379
156	0x38d5a9a0	0.000101882266
157	0x390ef261	0.00013632468
158	0x37db00ef	2.610727e-05
159	0xb8b0737f	-8.413847e-05
160	0xb80ca30f	-3.353046e-05
161	0x38788f58	5.9261307e-05
162	0x38375ca7	4.371689e-05
163	0x3902d4f6	0.000124771
164	0x3887e45b	6.479836e-05
165	0xb89efc18	-7.580983e-05
166	0xb8b743ec	-8.7387714e-05
167	0x3909adb6	0.0001313005
168	0x390fe910	0.00013724365
169	0xb83ef5a2	-4.5528293e-05
170	0xb92606c0	-0.00015833508
171	0xb8c15225	-9.218258e-05
172	0xb8ed17b6	-0.00011305457
173	0x38e7703c	0.000110358436
174	0xb9149ffc	-0.00014173979
175	0xb90571f7	-0.00012726324
176	0xb8872633	-6.444417e-05
177	0x3868c144	5.5493103e-05
178	0x37c042c8	2.2919281e-05
179	0xb91e9935	-0.00015125128
180	0xb90e1ad9	-0.00013552177
181	0x38007d85	3.0634477e-05
182	0x38ee4647	0.000113618145
183	0xb82e9037	-4.1619143e-05
184	0x38d5d114	0.00010195575
185	0x38e33296	0.00010833626
186	0x3829bfa2	4.0471212e-05
187	0x385055d8	4.9671013e-05
188	0xb9006fd0	-0.00012248685
189	0xb8384d11	-4.3940792e-05
190	0xb7e39a9b	-2.7132503e-05
191	0x38ff25c0	0.00012166379
192	0x385f59a6	5.3250835e-05
193	0x38f2fa21	0.000115860494
194	0x389eb420	7.567578e-05
195	0x3785d1af	1.5952477e-05
196	0xb8bd1f4d	-9.0180525e-05
197	0xb721fbaa	-9.654943e-06
198	0xb926949f	-0.0001588636
199	0x3842abb9	4.6413134e-05
200	0x387a7b3d	5.971942e-05
201	0x38051fbe	3.1739233e-05
202	0x38a41c9c	7.825458e-05
203	0x379d2843	1.8734607e-05
204	0xb813ac80	-3.5208184e-05
205	0x388ac86d	6.617685e-05
206	0xb5ac4278	-1.2834344e-06
207	0xb731ee71	-1.0605539e-05
208	0x37b554ef	2.1616432e-05
209	0x38c495e6	9.373929e-05
210	0x36b5b680	5.415466e-06
211	0x38e14258	0.000107411935
212	0xb91cd16a	-0.00014955332
213	0xb838976d	-4.4010045e-05
214	0xb87f64ae	-6.0890503e-05
215	0xb91ba7e8	-0.00014844502
216	0x385534a1	5.0832172e-05
217	0xb921c5c4	-0.0001542783
218	0xb528767d	-6.27573e-07
219	0xb9274cda	-0.0001595499
220	0xb79d41ad	-1.8746441e-05
221	0x376c56a5	1.408687e-05
222	0x38a5e684	7.91075e-05
223	0xb92afe81	-0.00016307273
224	0xb9009c1a	-0.00012265184
225	0x36d68eaf	6.3943075e-06
226	0xb8d569e3	-0.000101763544
227	0xb87df6dc	-6.0549806e-05
228	0xb83863d5	-4.3961994e-05
229	0xb8dbf13e	-0.000104876686
230	0x37d90adb	2.587347e-05
231	0x38f5e9b9	0.000117260446
232	0x3799e25c	1.8344428e-05
233	0x38dde5e9	0.00010580925
234	0xb89709e0	-7.2020805e-05
235	0x3911f13a	0.00013918141
236	0xb7d5f081	-2.5503572e-05
237	0xb92103f8	-0.00015355635
238	0xb806d089	-3.2142303e-05
239	0x3829ce54	4.0484898e-05
240	0xb82dd18f	-4.144158e-05
241	0x38c9d747	9.6245254e-05
242	0x3914859c	0.00014164153
243	0x38fe9de2	0.00012141072
244	0x382dc790	4.143227e-05
245	0x391fc5a6	0.00015237051
246	0x38237f19	3.8980597e-05
247	0x3920eb80	0.0001534652
248	0x38c23ab7	9.261577e-05
249	0xb7c29637	-2.3196551e-05
250	0xb84f5c50	-4.943862e-05
251	0x386fbe2e	5.715916e-05
252	0x385f2bd6	5.320817e-05
253	0x3892900f	6.9886555e-05
254	0x391d7909	0.00015017776
255	0xb82623d9	-3.961087e-05

bias f4 [84]
0	0x38a194ef	7.704819e-05
1	0x380aa5de	3.305624e-05
2	0x376e1d39	1.4192709e-05
3	0xbaa76e22	-0.0012773911
4	0xb84ecff3	-4.9307895e-05
5	0xbcafc3f1	-0.021455737
6	0x3c59d6c3	0.013295832
7	0x3d2a3351	0.041552845
8	0x3d081268	0.03322068
9	0x38807af4	6.1264174e-05
10	0xb81a4375	-3.6779285e-05
11	0xb8568aa9	-5.1150713e-05
12	0xb8c25e12	-9.268163e-05
13	0x38f0cbc7	0.00011482048
14	0x3abb0ddf	0.0014271102
15	0xb8c6ab4e	-9.473284e-05
16	0xb846293d	-4.7245285e-05
17	0xbca2126a	-0.019784171
18	0x3b8eede9	0.004361857
19	0xb9125a81	-0.0001395736
20	0x3db7d188	0.08975512
21	0x387b9ffc	5.999206e-05
22	0x3892d191	7.000857e-05
23	0x3dcaa3fb	0.09894558
24	0x3ad35440	0.0016123131
25	0xb8d1313e	-9.975069e-05
26	0xbcf7e062	-0.030258361
27	0x3cccea25	0.025013993
28	0xb80a7b8b	-3.3016822e-05
29	0xbc62f2dc	-0.0138518475
30	0x3d0b293d	0.033974875
31	0xbbda3fb6	-0.006660427
32	0x3d93a614	0.07209411
33	0xb8dc4b92	-0.000105044935
34	0xb93926cc	-0.00017657428
35	0xbbcbff90	-0.006225534
36	0xb795a4fc	-1.7839011e-05
37	0xb8258595	-3.9463474e-05
38	0xb8d4388d	-0.00010119481
39	0xb8deb857	-0.00010620121
40	0x3d9802c1	0.074224
41	0x3cc0f84c	0.023555897
42	0x3cd66709	0.026172178
43	0xbb75594c	-0.0037437258
44	0xb8a546da	-7.88101e-05
45	0x38f48e0b	0.00011661284
46	0x38a30732	7.773786e-05
47	0xb8961d73	-7.158043e-05
48	0xb90a58bd	-0.00013193763
49	0x3815c0c5	3.57039e-05
50	0xb890f151	-6.911404e-05
51	0x384f3dd5	4.941023e-05
52	0xb902775d	-0.00012442232
53	0xbc035fba	-0.008018428
54	0x3de31517	0.11088007
55	0xbb67ec02	-0.0035388474
56	0xb7266f06	-9.920221e-06
57	0xb90ba249	-0.00013316529
58	0x3d1e3e34	0.03863354
59	0xb915ca06	-0.00014285007
60	0x3c9537bf	0.018215058
61	0x3dac108a	0.08401592
62	0x3d79ba4c	0.060968682
63	0x3791ddb3	1.7388584e-05
64	0xb91c617b	-0.00014913634
65	0xb9cf9658	-0.00039594132
66	0x3d27ee86	0.040998958
67	0x3d02d7cb	0.031944077
68	0x3d6e86f9	0.05823419
69	0x3d94b735	0.072615065
70	0xbca74e13	-0.02042297
71	0x3a9bece1	0.0011896157
72	0x3dc424c6	0.095773265
73	0xba4501b9	-0.00075152103
74	0x388dd791	6.763556e-05
75	0xb781372a	-1.5403686e-05
76	0xb8e52af2	-0.0001092757
77	0xbc83032c	-0.015992723
78	0x3de96205	0.11395649
79	0x3db7eee8	0.089811146
80	0x3cf343df	0.02969545
81	0xb8d42656	-0.000101160884
82	0xb91801d1	-0.00014496526
83	0x38896fb8	6.553478e-05

weight f4 [10, 84]
0	0x3a81763f	0.0009877159
1	0xb9233f19	-0.00015568397
2	0x394dc453	0.0001962346
3	0xbd90625a	-0.07050009
4	0xb8f32670	-0.000115943025
5	0xbe553b63	-0.20823435
6	0x3d97596a	0.07390101
7	0x3d28286c	0.041054174
8	0x3e394290	0.18091798
9	0xb7c548e3	-2.351817e-05
10	0x39194355	0.000146163
11	0x389e81a4	7.5581745e-05
12	0xb92a5448	-0.0001624386
13	0xb81926c1	-3.6514135e-05
14	0x3bf5bbec	0.0074992087
15	0xb876fb53	-5.8885034e-05
16	0xb82d350c	-4.1295818e-05
17	0xbe4460f6	-0.19177613
18	0x3ccaa234	0.024735548
19	0xb8af005c	-8.344717e-05
20	0x3e9475d8	0.28996158
21	0xb8e76797	-0.000110342335
22	0xb8ff5dae	-0.00012176797
23	0x3ea772a6	0.32704657
24	0xbdec79f7	-0.115467004
25	0x38cb1f30	9.6856034e-05
26	0xbe9488cc	-0.29010618
27	0x3d59a037	0.05313131
28	0x390eeeed	0.00013631182
29	0xbe0726f5	-0.13198455
30	0x3d7e71d6	0.06212028
31	0xbd872e97	-0.06600683
32	0x3ec83245	0.39100853
33	0xb9486d1f	-0.00019114137
34	0xb907033d	-0.0001287581
35	0xbd6e21d9	-0.05813775
36	0x37c40dbe	2.337142e-05
37	0xb9092af5	-0.00013081341
38	0xb90412a6	-0.00012595448
39	0xb73ffe1f	-1.1443654e-05
40	0x3ecfc652	0.40580994
41	0x3e050c96	0.12993082
42	0x3d8e706d	0.06955037
43	0xbd133165	-0.03593578
44	0x38adea97	8.2929786e-05
45	0xb8df5273	-0.00010648826
46	0x391df69b	0.00015064554
47	0xb922ea3e	-0.00015536786
48	0xb78fb615	-1.7131717e-05
49	0xb890d32e	-6.90579e-05
50	0x38b053ba	8.407929e-05
51	0xb82911b0	-4.0309213e-05
52	0xb91dd0ca	-0.00015050467
53	0xbe0bc965	-0.13651045
54	0x3f0187bf	0.5059776
55	0xbe0ab177	-0.1354426
56	0xb947e9f3	-0.00019065272
57	0xb93ea631	-0.00018181723
58	0x3d18d02a	0.037307896
59	0x3863d1d9	5.4316453e-05
60	0xbd2364f3	-0.039891195
61	0x3edbac92	0.42905098
62	0x3e15a17f	0.14612387
63	0xb920ea8d	-0.00015346166
64	0xb927d12b	-0.00016004282
65	0xbb593537	-0.003314329
66	0x3e08bab3	0.1335247
67	0x3c5b64b9	0.013390713
68	0x3ea4737a	0.32119352
69	0x3ebeee05	0.3729097
70	0xbe47f7f5	-0.19528182
71	0xbdaa6325	-0.083196916
72	0x3ed80881	0.42193988
73	0xbbc03f7a	-0.005866942
74	0x3902e2bf	0.00012482236
75	0xb7f80a4f	-2.9568704e-05
76	0x38147970	3.5399047e-05
77	0xbe1d8306	-0.15382013
78	0x3ecb4985	0.39704528
79	0x3e9fcb0a	0.31209594
80	0x3e210755	0.15725453
81	0xb8636dad	-5.422316e-05
82	0xb924a97b	-0.00015703395
83	0xb890ec6b	-6.910491e-05
84	0xb96289df	-0.000216044
85	0x37c06936	2.2937176e-05
86	0xb8739b88	-5.8080564e-05
87	0x3e2da2fa	0.16956702
88	0xb7027abb	-7.777179e-06
89	0x3e9f71e1	0.3114157
90	0xbd2c51ac	-0.042070076
91	0x3ebb344d	0.3656334
92	0xbdc0a5b5	-0.09406606
93	0xb94328bc	-0.00018611824
94	0x3832bde4	4.2615357e-05
95	0x38901884	6.8710215e-05
96	0xb82f7b81	-4.1838273e-05
97	0x382ccd16	4.1198997e-05
98	0xbb83b718	-0.004019629
99	0x38c78614	9.5140334e-05
100	0x38257abf	3.945338e-05
101	0x3e93b5ec	0.28849733
102	0xbc73a970	-0.01487194
103	0xb8d3ac2d	-0.00010093334
104	0x3e86f7de	0.26360983
105	0x3717bc94	9.044208e-06
106	0x39112315	0.00013841347
107	0x3e8b7a13	0.27241573
108	0x3ea2b02b	0.3177503
109	0x3927520e	0.00015956929
110	0x3ed977da	0.42474252
111	0x3e14e7d0	0.14541554
112	0xb887b3af	-6.47077e-05
113	0x3e452566	0.19252548
114	0x3e65128a	0.22370353
115	0x3dd2cade	0.102926
116	0xbe4dd475	-0.20100577
117	0x37c8141b	2.385122e-05
118	0xb777f9df	-1.4780525e-05
119	0x3daaf42b	0.083473526
120	0xb901c9eb	-0.00012377619
121	0x38a1cb44	7.7149394e-05
122	0x3944533c	0.00018723024
123	0x38ff5090	0.000121743535
124	0xbe5b91be	-0.21442315
125	0xbd8fc389	-0.07019717
126	0x3dec949d	0.11551783
127	0x3d5a239c	0.053256616
128	0xb8d795fc	-0.00010279936
129	0x38501a82	4.961575e-05
130	0x37d7cd02	2.5725461e-05
131	0xb8f9c542	-0.000119099874
132	0x3937d7d4	0.00017532642
133	0xb8cad1fb	-9.6712225e-05
134	0xb939d9d7	-0.00017724127
135	0xb8bc703d	-8.9854446e-05
136	0xb7fca39f	-3.0116933e-05
137	0x3e86c39c	0.26321113
138	0xbd69e202	-0.057100303
139	0x3ea0a031	0.31372216
140	0xb7b88cc0	-2.2000051e-05
141	0x39255f9b	0.00015771242
142	0x3eafef91	0.34362462
143	0x39161358	0.00014312321
144	0x3e9f698a	0.31135207
145	0xbe28e8dd	-0.1649508
146	0x3e9f9aeb	0.3117288
147	0xb90335b7	-0.00012513144
148	0xb8e7597a	-0.00011031605
149	0x3b90a718	0.0044144504
150	0x3df1ea31	0.118122466
151	0x3ea827fa	0.32843
152	0xbe3404d6	-0.1757997
153	0xbe15d90e	-0.14633581
154	0x3e91d056	0.2847926
155	0x3e6bdb9c	0.23032993
156	0xbc2dfa06	-0.010618692
157	0x3c007998	0.00784149
158	0x39106b6c	0.00013772928
159	0xb9316570	-0.00016917824
160	0x391e76a7	0.00015112256
161	0x3e690585	0.22756012
162	0x3e856f59	0.26061514
163	0x3e5780f7	0.2104529
164	0xbd9384a1	-0.07203031
165	0xb79246a1	-1.7437445e-05
166	0xb822785c	-3.8735903e-05
167	0xb8ef1114	-0.00011399589
168	0xb93857d8	-0.00017580332
169	0xb930f993	-0.00016877642
170	0x37f87de4	2.9622526e-05
171	0xbc49eca5	-0.012324487
172	0x39096746	0.0001310381
173	0xbc559067	-0.0130349165
174	0xbb83cbd5	-0.0040221014
175	0xbd503f26	-0.050841473
176	0xbc2fca49	-0.010729381
177	0x393847e0	0.00017574383
178	0x381d9b73	3.757649e-05
179	0x39020c7e	0.0001240242
180	0x38c2df1d	9.292199e-05
181	0xb7bdb5d1	-2.261522e-05
182	0xba1bfbc5	-0.00059502973
183	0x389db0f9	7.519307e-05
184	0xb8bc6a07	-8.984288e-05
185	0xbc48c9d6	-0.012255153
186	0xbaaaf68a	-0.0013043445
187	0x39128dd4	0.0001397648
188	0xbd8df316	-0.069311306
189	0xb88ec318	-6.807427e-05
190	0xb70a41b6	-8.2407405e-06
191	0xbd999043	-0.07498219
192	0xbcd07941	-0.025448443
193	0x3899bc6b	7.330704e-05
194	0xbc8a0356	-0.016847294
195	0xbcccbdd1	-0.024992855
196	0xb7a9d705	-2.0246496e-05
197	0xbbfa4c7d	-0.0076385126
198	0xbd124824	-0.03571333
199	0xbb9c0c03	-0.004762174
200	0xbcc1d117	-0.023659272
201	0xb7d33569	-2.5178031e-05
202	0x38316e52	4.2302832e-05
203	0xbb46f51b	-0.0030358497
204	0xb9258930	-0.00015786733
205	0x38d25092	0.00010028588
206	0x38fc683a	0.0001203571
207	0xb939a0fe	-0.00017702949
208	0xbcc2cd13	-0.023779428
209	0xbbf5d68b	-0.007502382
210	0xbcbde11e	-0.023178633
211	0xbb17a0d1	-0.0023136626
212	0x389a0fd9	7.346244e-05
213	0xb790cfab	-1.726284e-05
214	0x3924f29b	0.00015730636
215	0xb915a35c	-0.00014270603
216	0xb9118b6e	-0.00013880219
217	0xb6107ece	-2.1531482e-06
218	0xb92d8989	-0.00016549802
219	0xb7cc04e3	-2.432097e-05
220	0xb941f574	-0.00018497353
221	0xbc81ff9e	-0.015868958
222	0xbd656cc8	-0.056011945
223	0xbcb73e9d	-0.022368724
224	0x38a0953f	7.657194e-05
225	0xb8c53ef7	-9.40542e-05
226	0xbd43b9cd	-0.047784615
227	0xb8826d0a	-6.219193e-05
228	0xbd0bb2a9	-0.03410593
229	0xbd07d028	-0.033157498
230	0xbd69cd78	-0.057080716
231	0xb937a1f3	-0.00017512571
232	0xb925e42c	-0.00015820627
233	0xb982b7e9	-0.00024932556
234	0xbd001b54	-0.031276062
235	0xbd2f4d59	-0.042798374
236	0xbc94cb53	-0.018163359
237	0xbce92dc4	-0.028464206
238	0xbc349834	-0.011022616
239	0xbc97bdf2	-0.01852319
240	0xbd527101	-0.0513773
241	0xb95e86fd	-0.00021221857
242	0x38437e09	4.6609002e-05
243	0xb90aac0b	-0.00013224797
244	0xb887ea97	-6.4809974e-05
245	0xbc15edd8	-0.009150945
246	0xbda82bfd	-0.08211515
247	0xbd8572cb	-0.06516036
248	0xbc316114	-0.010826368
249	0xb8f88446	-0.000118501994
250	0x385b3dd5	5.2271254e-05
251	0x391bf735	0.00014874044
252	0x377cc5ff	1.506647e-05
253	0x39028e62	0.00012450808
254	0x379ef8af	1.895087e-05
255	0xbc4c4009	-0.012466439

bias f4 [10]
0	0x3e75badc	0.23997062
1	0x3da7d16c	0.08194241
2	0xbd248164	-0.04016246
3	0xbd2544b2	-0.040348716
4	0xbd251de7	-0.04031172
5	0xbd258d13	-0.040417742
6	0xbd247c1b	-0.04015742
7	0xbd245a84	-0.040125385
8	0xbd254697	-0.040350523
9	0xbd254381	-0.04034758

momentum_buffer f4 [6, 3, 3, 3]
0	0x3d04399f	0.032281514
1	0x3d3bd86c	0.045860693
2	0x3d490bf3	0.04908366
3	0x3d1ab6a9	0.037771855
4	0x3d69a585	0.057042617
5	0x3d3c83fe	0.046024315
6	0x3d0f61a4	0.035005227
7	0x3d5d5f0a	0.054045714
8	0x3d1ecd2d	0.03876989
9	0x3d17e42a	0.03708283
10	0x3d514f57	0.051101055
11	0x3d83bbe3	0.06432321
12	0x3d34b04b	0.04411344
13	0x3d84aca8	0.06478244
14	0x3d6e73d1	0.05821592
15	0x3d320c26	0.043468617
16	0x3d80e988	0.062945426
17	0x3d38d6ae	0.04512661
18	0x3d03301a	0.032028295
19	0x3d623cff	0.05523395
20	0x3dae4190	0.08508599
21	0x3d3f9f64	0.046782866
22	0x3d9d52dd	0.076818205
23	0x3daf3c12	0.085563794
24	0x3d4f5dca	0.050626554
25	0x3da03210	0.07822049
26	0x3d8f7412	0.070045605
27	0xbd2c2916	-0.04203137
28	0xbd1e4fc9	-0.038650308
29	0xbc8b3c94	-0.01699666
30	0xbd91fee2	-0.07128693
31	0xbd210cd4	-0.039318874
32	0xbc054ac0	-0.008135498
33	0xbd89febc	-0.0673804
34	0xbda2a7fc	-0.07942197
35	0xbd590e70	-0.052992284
36	0xbc886e14	-0.016654052
37	0xbca9e438	-0.020738706
38	0xbb88b750	-0.004172243
39	0xbd34522c	-0.044023678
40	0xbc8c5344	-0.017129548
41	0x3b92a548	0.0044752695
42	0xbd3a9e69	-0.045561228
43	0xbd73edb0	-0.05955285
44	0xbd2d36cb	-0.042288583
45	0xbc85286b	-0.016254624
46	0xbcf5ecd6	-0.030020159
47	0xbca39758	-0.019969627
48	0xbd056549	-0.032567296
49	0xbc8c478d	-0.017123962
50	0xbb8afff8	-0.0042419396
51	0xbc96dfb0	-0.01841721
52	0xbd21a053	-0.039459538
53	0xbd2b8a86	-0.041880153
54	0x3ca1e12a	0.019760687
55	0xbb9c0d19	-0.0047623035
56	0xbd028e6f	-0.031874117
57	0x3c92d02f	0.017921535
58	0xbb89c615	-0.0042045214
59	0xbcd5b3ac	-0.02608665
60	0x3c81d4f1	0.015848609
61	0xbb5fdbda	-0.0034158141
62	0xbccd4a51	-0.02505985
63	0x3c9dec98	0.019277856
64	0xbb24f4bb	-0.0025170285
65	0xbcdae160	-0.026718795
66	0x3c726a2e	0.014795823
67	0xbae9a36c	-0.0017825193
68	0xbc9f2e68	-0.019431308
69	0x3c397187	0.011318571
70	0xbb1a3cc4	-0.0023534754
71	0xbc9b6740	-0.018970132
72	0x3d1df0e2	0.038559802
73	0x3c80df5e	0.01573151
74	0xbc28e223	-0.010307821
75	0x3d0e9f7a	0.034820057
76	0x3c8d8ea1	0.017279925
77	0xbb4571a0	-0.003012754
78	0x3cf5d5fb	0.03000926
79	0x3c964c92	0.018347058
80	0x3a8e9114	0.0010876977
81	0x3d7a492a	0.06110493
82	0x3d5e6610	0.054296553
83	0x3d499785	0.049216766
84	0x3d815d29	0.06316597
85	0x3d6d4324	0.05792536
86	0x3d83d50d	0.064371206
87	0x3d8c1dc5	0.068416156
88	0x3d9c4b72	0.076315776
89	0x3dbed327	0.09317618
90	0x3d51f6c6	0.051260732
91	0x3d404dd5	0.046949226
92	0x3d373634	0.044729427
93	0x3d5626ea	0.052283205
94	0x3d573ef9	0.05255029
95	0x3d81b30c	0.063329786
96	0x3d7e417c	0.06207417
97	0x3d96e6d4	0.07368246
98	0x3dc1c552	0.09461464
99	0x3d44d516	0.048054777
100	0x3d622798	0.05521354
101	0x3d829350	0.06375754
102	0x3d380d4d	0.04493456
103	0x3d735b19	0.05941305
104	0x3da9d731	0.08292998
105	0x3d60e5f4	0.0549068
106	0x3da7595b	0.0817134
107	0x3deb3675	0.11484996
108	0x3e14214c	0.14465827
109	0x3e14cf54	0.14532214
110	0x3dd73724	0.10508564
111	0x3e0d8959	0.13821925
112	0x3dda17b6	0.10649054
113	0x3dc73f02	0.09728815
114	0x3dbef0b6	0.09323256
115	0x3d9e234f	0.07721578
116	0x3dba4f56	0.090971634
117	0x3df286d3	0.11842122
118	0x3dfdd6a2	0.123944536
119	0x3dc0c4d4	0.09412542
120	0x3df08bb0	0.11745393
121	0x3dc1226c	0.094303936
122	0x3dbfbd39	0.09362263
123	0x3da30687	0.07960229
124	0x3d863296	0.06552617
125	0x3da91ee0	0.08257842
126	0x3d6a104e	0.057144456
127	0x3dae5e53	0.08514085
128	0x3da3da72	0.080006495
129	0x3d8d8d27	0.06911688
130	0x3d85891e	0.06520294
131	0x3db8e14c	0.09027347
132	0x3d33b37f	0.043872353
133	0x3d3c100d	0.045913745
134	0x3da8cab0	0.082417846
135	0xbc0ff118	-0.008785509
136	0x3b74426c	0.0037271036
137	0x3b289a2c	0.002572666
138	0x3b86a0d7	0.004108529
139	0x3c1c15b2	0.009526657
140	0x3aaa6d38	0.001300252
141	0x3c1500b4	0.009094406
142	0x3be4a8f8	0.0069781505
143	0xbbe84683	-0.007088484
144	0xbc1147d7	-0.008867226
145	0x3bafd108	0.0053654946
146	0x3be157fc	0.0068769436
147	0x3b358b00	0.0027701259
148	0x3c0eeeaf	0.008723899
149	0x3aa92d1c	0.001290712
150	0x3b369ae0	0.0027863309
151	0x3a9c1138	0.0011906987
152	0xbc25d4e9	-0.0101215625
153	0xbb1e3f82	-0.002414674
154	0x3c2d9448	0.010594435
155	0x3c54b98e	0.012983693
156	0x3c28fc09	0.010313996
157	0x3c880818	0.016605422
158	0x3c29362d	0.010327858
159	0x3c18e0b0	0.009330913
160	0x3c2ff1e6	0.010738825
161	0x3b3548cc	0.0027661799

momentum_buffer f4 [6]
0	0xbc321c74	-0.010871042
1	0xbd5488a6	-0.05188813
2	0x3d475ea4	0.04867424
3	0xbdd24f6a	-0.10269053
4	0x3d497aa7	0.049189236
5	0xbc0a43c6	-0.00843901
