assignments/reference/best_model.pth (torch, 658281 bytes, 20 tensors)

weight f4 [6, 3, 3, 3]
000000 f3 1a a4 3d bd 4d 17 bc 2d e3 3d bd fb e7 1e 3d
       0.08012953 -0.009234843 -0.04635923 0.038795453
000010 24 27 73 bd 7c 18 a0 bd 58 04 4b 3d 4f b5 58 bd
       -0.0593635 -0.0781717 0.04956469 -0.052907284
000020 77 2e 83 bd c2 a3 7d 3c 20 3b c2 bd a2 cf 06 be
       -0.06405347 0.015480937 -0.094839334 -0.13165143
000030 56 03 3f bd 99 5e 30 be f7 ca 37 be b2 80 e9 bc
       -0.04663404 -0.17223586 -0.17948519 -0.02850375
000040 fa d5 21 be 26 fd 22 be 4e e5 40 3d 0b a6 97 bd
       -0.15804282 -0.15916881 0.047093682 -0.07404717
000050 32 a2 ca bd 31 58 02 bd 91 c8 39 be 28 20 3b be
       -0.098942176 -0.031822387 -0.18142916 -0.18273985
000060 a2 1c 10 b9 5a da 1d be ee 8d 12 be 0b 7b aa bc
       -0.00013743577 -0.15415326 -0.14311954 -0.020810625
000070 c9 7b 0c bd 64 26 4e bd ea 6f 0f 3c 3f 19 c3 bc
       -0.03429774 -0.05032958 0.00875471 -0.02381575
000080 1f 03 7d bd 3d b2 82 3d c9 17 c6 3c 5e 88 f5 bc
       -0.061770555 0.063816525 0.024181264 -0.029972252
000090 5e e7 89 bd 28 00 99 bd ee 4c e2 bd c2 67 83 bd
       -0.06733583 -0.07470733 -0.110498294 -0.064162746
0000a0 23 2d b1 bd 06 05 15 be b7 3d 4d bd aa ff a3 bd
       -0.08651187 -0.14552698 -0.050107684 -0.080077484
0000b0 88 6d 1d be 21 9f 72 3e 14 c1 74 3e 0b 8e d6 3d
       -0.15373814 0.23693515 0.23901778 0.10476311
0000c0 35 f7 5f 3e f0 32 56 3e 86 42 7a 3d 90 b7 23 3e
       0.21871646 0.20917869 0.061098598 0.15987992
0000d0 c1 01 0a 3e bd e1 c9 ba 2c bf 4b bc 58 17 97 be
       0.13477232 -0.0015402358 -0.012435716 -0.29509997
0000e0 39 b6 ef bd e0 43 83 be ec f4 de bd 46 8c 4d 3e
       -0.11704678 -0.25637722 -0.10886559 0.20073041
0000f0 43 8d 01 3c c5 0a 80 3e ce d0 0b 3e 7d 97 38 bc
       0.007907215 0.25008217 0.13653871 -0.011266586
000100 b8 94 85 be 0a 37 34 bd 41 51 80 be b3 4d c3 bd
       -0.26090026 -0.0439978 -0.25061992 -0.09536304
000110 3f f8 5e 3e fb e6 8b 3d 2f d6 8c 3e 10 98 c7 3d
       0.21774386 0.068311654 0.2750716 0.097458005
000120 6e ad 1b be 1c 74 a0 be b9 d9 78 bc f9 d1 b6 be
       -0.15202877 -0.31338584 -0.015188628 -0.3570707
000130 12 65 f5 bd 9e 08 8e 3e e2 64 64 3d 26 53 a7 3e
       -0.11982168 0.2774095 0.05576027 0.32680625
000140 c4 30 3c 3e 78 a0 c2 bd fd 92 aa be 94 63 51 bc
       0.18377978 -0.09503263 -0.33315268 -0.012780089
000150 55 9c 6c 3e c4 75 de bd 79 1a 81 be cf 86 e7 3d
       0.23106511 -0.10862306 -0.2521551 0.113050096
000160 a7 8d 72 3e 16 08 97 3c 95 c3 44 bd 3c 44 91 be
       0.23686849 0.018436473 -0.048038084 -0.2837237
000170 63 15 15 3d c9 ec 45 3e d9 af d5 bd 09 db 5a be
       0.03639735 0.19328608 -0.10433931 -0.21372618
000180 00 13 3e 3b 3b cd 5e 3e 93 5f 84 3d 0f 36 04 3d
       0.0029003024 0.21757977 0.06463542 0.032278117
000190 71 18 95 be b8 89 cf bc 46 d8 93 3e 70 1c d2 bd
       -0.2912021 -0.025334224 0.2887594 -0.1025933
0001a0 64 fd 88 be 41 8f fe 3d c2 16 8f 3e 43 06 a0 3d
       -0.26755822 0.12429667 0.2794705 0.07813694
0001b0 21 80 b2 3d 3b 0c b9 3d c8 13 67 3d 6c dd 16 3e
       0.08715845 0.09035536 0.05641535 0.14732903
0001c0 bb f8 0d 3e bf 10 89 3d 27 43 8c 3d 0b 6a 7e 3d
       0.13864414 0.06692647 0.06848746 0.06211285
0001d0 b4 b4 8c 3c c2 95 c6 3d 02 94 be 3d 82 f1 8b 3d
       0.01717601 0.09696533 0.09305574 0.06833173
0001e0 ac b0 1c 3e 5f 92 0c 3e 85 af 96 3d 7d ed c6 3d
       0.1530177 0.13727711 0.073576964 0.09713266
0001f0 41 eb b2 3d c5 68 20 3d 20 68 84 3d 80 53 91 3d
       0.08736277 0.039162416 0.06465173 0.070960045
000200 51 33 41 3d 41 2c de 3d 9e 6b cd 3d 60 18 30 3d
       0.04716808 0.108482845 0.10030292 0.042991996
000210 24 b1 81 3d 3a 7c 78 3d bd 9b 89 3c 8b 92 9d 3d
       0.06332615 0.060665347 0.016797895 0.076939665
000220 eb 3d c8 3d a4 57 2c 3e 2f 1a 4e bd 72 ef 02 bd
       0.09777435 0.16830307 -0.05031794 -0.031966634
000230 10 df dd 3d cb ae bb bd f1 68 94 bc 62 22 13 3e
       0.108335614 -0.091641985 -0.018116446 0.14368585
000240 b6 86 01 be f2 6c 5d bd df 35 dc 3d 98 25 a6 be
       -0.12649044 -0.054058976 0.107524626 -0.32450557
000250 40 4c 7f be 12 63 a6 3b 5f 3c ad be dc cc 57 be
       -0.24931431 0.005077728 -0.33835122 -0.21074241
000260 ac 0c 47 3d eb 88 cb bd ac 97 e6 3c e5 a5 92 3e
       0.04859607 -0.099382244 0.028148495 0.28642192
000270 14 5e c6 be 10 e8 80 be 7d 84 07 3e 2e 2a ba be
       -0.3874365 -0.2517705 0.13234134 -0.36360306
000280 f0 27 31 be 33 17 33 3e
       -0.17300391 0.17489319

bias f4 [6]
000000 46 21 e9 bd 33 6f 17 3e 52 1c 11 3e 41 37 16 3e
       -0.113832995 0.14788513 0.1417096 0.14669515
000010 84 66 77 bb 6d ce 8c 3d
       -0.0037750313 0.0687531

weight f4 [16, 6, 3, 3]
000000 0e 02 f3 3c 12 9b 35 3d 33 af ff bd d9 23 af bd
       0.029664066 0.04433734 -0.124845885 -0.08551759
000010 77 a5 b3 bc f9 11 62 bc 35 1e 6b 3c 94 17 64 bc
       -0.021929486 -0.01379823 0.014350464 -0.013921637
000020 ce d9 f2 bc 60 58 f9 3c 09 b9 d9 bc 30 f2 6c bd
       -0.029644873 0.030437648 -0.02657749 -0.057848155
000030 31 29 4b 3d d0 02 a5 3d 48 b3 1f bd 2e b2 d8 3c
       0.04959983 0.08057177 -0.038989335 0.02645215
000040 1a 33 dd 3c e6 56 a7 bb 65 2f d0 bd 59 ec b8 3c
       0.027001906 -0.0051067946 -0.1016529 0.022573637
000050 b5 92 99 bd 14 d9 d5 bd 45 99 19 be 9c 0b db bd
       -0.07498685 -0.10441795 -0.14999874 -0.10695574
000060 36 19 a0 bd 9b d0 03 be 90 4e 25 be 6a 9d 9a 3e
       -0.078173086 -0.12872545 -0.1614325 0.30198222
000070 83 78 78 3e 24 de e8 3a 28 db 0a bd dc 19 8c 3e
       0.24264722 0.0017766398 -0.03390041 0.2736348
000080 8a dc 36 3e d1 b4 99 3d 7f 69 3f bc dc c7 d8 3d
       0.17857566 0.07505191 -0.011682867 0.10584995
000090 8c 3d f6 3c ad 62 90 bd 2c bb 6e bd 54 d1 86 bb
       0.030058645 -0.07050071 -0.05828397 -0.0041143093
0000a0 d9 be 6b 3c 9d 75 a2 bb cf 73 c3 3c f2 91 96 bc
       0.014388763 -0.0049578683 0.023858933 -0.018380139
0000b0 91 f8 e6 bc 72 3e 8e bd ea 43 32 3d f0 eb 80 3d
       -0.028194698 -0.06945504 0.0435218 0.062950015
0000c0 76 d2 bd 3d 5f 93 02 be 6c 3d 66 3d 37 41 ff 3d
       0.09268658 -0.1275153 0.05621092 0.124636106
0000d0 bd c6 ba 3d c0 0a 9c bd b3 fe fa b9 97 65 de b8
       0.091199376 -0.07619238 -0.00047873482 -0.000106047075
0000e0 0a b8 6f 3a 01 fd c7 b9 61 39 db b9 32 01 04 ba
       0.00091445504 -0.0003814474 -0.00041813686 -0.00050355785
0000f0 74 6e b5 b9 9e a2 d5 b9 8b cb 38 ba 31 c8 e5 b9
       -0.00034605304 -0.00040747685 -0.0007049373 -0.00043827438
000100 fb 2f 2b b9 77 b3 45 ba 71 60 38 b9 18 38 db b9
       -0.00016325705 -0.0007541696 -0.00017583535 -0.00041812728
000110 c7 a5 dd b8 4c cf e5 b9 df 20 ea b9 fe 32 d4 b9
       -0.000105689796 -0.00043832732 -0.0004465645 -0.00040473783
000120 a1 06 e6 3a 24 b0 85 3a 3e 4d 94 3a 97 19 c3 b9
       0.0017549583 0.0010199589 0.0011314524 -0.00037212364
000130 7a b5 51 ba a1 63 e2 39 58 c4 ef b9 29 3a e7 b9
       -0.00079997594 0.00043180308 -0.0004573192 -0.00044103086
000140 2e b2 b9 b9 b2 33 58 3a 03 b5 00 3b a0 7e 0b 3b
       -0.00035418704 0.00082474493 0.0019639141 0.0021285191
000150 00 3b 35 ba 85 e8 56 ba f5 f3 91 3a ad 84 53 ba
       -0.0006913394 -0.00081981 0.0011135327 -0.00080687815
000160 fd 98 63 ba b6 ab 23 ba cb 1a f2 b9 c7 40 42 38
       -0.000868216 -0.00062435435 -0.000461778 4.6313533e-05
000170 43 cd 9e ba 0c 2c b9 39 e4 d6 1d 3a 57 65 25 3a
       -0.0012115616 0.00035318767 0.0006021096 0.00063093513
000180 1e a2 8e 39 a1 e6 30 39 83 c9 23 3a 11 9d 23 b9
       0.00027205137 0.00016870584 0.0006247984 -0.00015603403
000190 9b 93 81 ba 00 93 d0 39 d7 f7 6f ba 3e d8 d8 b9
       -0.0009885909 0.00039782375 -0.00091540575 -0.00041359843
0001a0 04 18 ea b9 9b 11 8d ba 45 c6 83 ba d7 35 34 ba
       -0.0004464985 -0.0010762693 -0.0010053596 -0.0006874478
0001b0 4c 9e ed 3d b9 53 47 3e b8 58 87 3d f6 35 04 be
       0.11602458 0.19465531 0.06608719 -0.1291121
0001c0 55 b0 4b 3d 3f 50 78 3a 5e 39 16 be a2 7f f8 bd
       0.04972871 0.0009472407 -0.14670321 -0.12133719
0001d0 0d 98 32 bc e9 90 08 3c ad d1 5a bd d5 54 38 bd
       -0.01090051 0.0083353305 -0.05342262 -0.045002777
0001e0 dd d3 0b 3b 04 1f bd 3c 5a b9 c6 bc da 1d 0a 3d
       0.0021335997 0.023086078 -0.024258304 0.033719875
0001f0 39 45 9d 3d 6a b3 48 3d 8f 0d 78 bd 23 67 75 3d
       0.07679219 0.048999228 -0.060559805 0.059912812
000200 32 ad a7 3d db b5 03 be db 90 aa 3d 19 1d d4 3d
       0.08187331 -0.12862341 0.0832841 0.103571124
000210 5a e7 39 be 8d 2a 3f bd a5 a1 ee 3c 6c f8 35 3e
       -0.1815466 -0.04667144 0.029129812 0.17770547
000220 c5 e1 72 3d e5 90 db bd e5 48 79 3d 9c d4 28 3e
       0.05929734 -0.10720996 0.060860533 0.16487354
000230 30 bb cd bd cc 2d 94 bd 4f 35 4e bd cb 7a b0 bd
       -0.10045469 -0.072352976 -0.050343808 -0.08617171
000240 d0 38 9c bb 87 70 46 bc 19 83 83 bd 3b 16 19 bd
       -0.0047675148 -0.01211179 -0.06421489 -0.037374716
000250 7d 7f 25 bd 2a 26 08 bd cf e9 98 bb b4 4f 0d bb
       -0.040404785 -0.03323952 -0.004666544 -0.00215624
000260 0e 2d 01 3e f6 75 75 3d 10 a3 d1 3e 81 a8 f9 3d
       0.12614843 0.05992695 0.4094472 0.12190343
000270 d5 60 6e bd c3 47 d9 bd 2a 2f 69 bd f8 3a 8d bd
       -0.058197815 -0.106093906 -0.056929745 -0.06896013
000280 dc f5 32 be 6c ae 5e be 61 a9 34 3c ce 9b 9f bc
       -0.174766 -0.21746224 0.011026711 -0.019483473
000290 53 80 02 bd 3a c0 94 bb 9d 1f 30 bd b9 5c 80 bd
       -0.03186066 -0.0045395168 -0.0429989 -0.062676854
0002a0 bc d0 a4 bc 54 67 49 bd 09 74 86 bd 89 11 b4 3d
       -0.020119064 -0.049170807 -0.06565101 0.08792407
0002b0 67 df 8c 3d 49 00 89 3d 31 59 61 3d 35 28 9c 3c
       0.06878548 0.066895075 0.0550167 0.019062141
0002c0 dc c6 1c 3d 3c e3 2d 3d b8 9e 53 3c ff 5b 0a 3d
       0.038275585 0.042453036 0.0129162595 0.03377914
0002d0 9d 86 5a bd b9 88 65 bd 12 a1 86 bd 8d 38 87 bd
       -0.053351033 -0.056038592 -0.065736905 -0.06602583
0002e0 59 e8 65 bd d5 43 ac bd 2e 4f b7 bb c1 a7 4f 3c
       -0.056129787 -0.084113754 -0.0055941558 0.012674273
0002f0 96 dd c1 bc 2c e4 86 bc 97 66 1e bd c7 b0 22 3d
       -0.02366523 -0.016466223 -0.038672056 0.03971937
000300 f7 d3 33 bc 6f 06 a6 bd 06 a2 a3 3c 1e 60 8d bb
       -0.010975829 -0.08106696 0.01997472 -0.0043144366
000310 01 14 23 bc b8 cc 91 3c 2f 56 9b 3c 07 02 cb 3b
       -0.0099535 0.017797813 0.018961994 0.00619531
000320 8c 06 a7 3a 4c 8d 85 3d 89 5c 48 3d 5c 48 bd 3d
       0.001274304 0.06521091 0.048916373 0.09242317
000330 b2 39 c7 3d da 7d ee 3d 0f 95 05 3e 43 d4 77 bd
       0.097278014 0.11645098 0.13045143 -0.060505163
000340 2a 9e c4 bb 5c b0 ad bc a2 01 fb bd 02 b1 21 bd
       -0.0060003 -0.021202259 -0.12256171 -0.03947545
000350 d4 57 a3 bd 17 a6 8a bd 4f fc 42 bd 71 cb 6a bd
       -0.07975736 -0.067699604 -0.0476039 -0.057322923
000360 34 d1 f6 bd 17 30 0e be ef 70 c5 bd 68 30 19 bd
       -0.12051621 -0.13885532 -0.09640681 -0.03739968
000370 a1 5a 75 bd 0c 8a d1 bb 7d 97 5b 3d 46 96 52 3c
       -0.059900884 -0.0063946303 0.053611267 0.012853211
000380 09 c6 b4 3d df 08 33 3d eb e2 38 3d bc f1 e7 3c
       0.08826835 0.043709632 0.04513828 0.02831351
000390 37 1d 79 3d 8e b9 07 3d 7d 23 dd 3c 1f 8c a3 bc
       0.060818877 0.033135943 0.026994461 -0.019964276
0003a0 d7 90 84 3a f4 2b a2 bc a7 3f 01 3e dc 96 28 3e
       0.0010113966 -0.01979635 0.12621938 0.16463798
0003b0 0d e2 57 bc 76 8e 0b be 94 05 c7 bd 5b 1b 67 bd
       -0.013176453 -0.13628563 -0.09717861 -0.056422573
0003c0 5f fa 9f 3d 54 c0 3b 3e a9 fe 33 3d bd df 2a 3e
       0.07811426 0.18335086 0.043944035 0.16686912
0003d0 5b 64 01 3e e8 a1 0a 3e fd 6d c3 bc 6e 61 d0 bd
       0.12635939 0.13538325 -0.023856157 -0.10174833
0003e0 c5 47 74 3d aa 7a 1e 3e 5b b1 da 3d 8e 72 19 3d
       0.059638757 0.1547648 0.10678359 0.037462763
0003f0 c5 51 94 3d b1 3d 66 3d 9a 6f 33 bd a1 48 69 3d
       0.07242159 0.056211177 -0.043807603 0.05695403

bias f4 [16]
000000 06 0d a0 3c ce 0e b0 b9 3f d9 0b be 86 1d df 3d
       0.01953746 -0.00033580366 -0.13657092 0.10894303
000010 8a df 33 3e 23 84 0f 3d d4 ef 17 3b e4 af 43 bd
       0.17565742 0.035038125 0.002318372 -0.047775164
000020 36 77 31 b9 34 c7 de bd ce 88 1f bd 7b 02 a7 3d
       -0.00016924445 -0.10877839 -0.038948826 0.0815477
000030 3c 46 a3 bd 71 8b b6 bc 68 50 4f bb a0 fc 6c 3d
       -0.079723805 -0.022283288 -0.003163362 0.05785811

weight f4 [120, 576]
000000 69 07 da bb a8 f9 86 bc 94 67 e9 ba 7a 3e 41 3b
       -0.0066537154 -0.016476467 -0.0017807358 0.0029486702
000010 60 05 52 3c f3 32 c7 3c 78 51 bf 3b 0b 15 91 3b
       0.012818664 0.024316287 0.0058385693 0.0044275573
000020 9f d5 36 3c a4 6d f4 3b 6e 68 fb 3b 24 78 90 3c
       0.01115933 0.0074593592 0.007672361 0.017635413
000030 a3 55 23 3c 5e 30 2c 3c f1 02 c1 3b 92 a0 59 3c
       0.009969148 0.0105095785 0.005890243 0.013282912
000040 9f c9 39 3c 3d b0 72 3b 14 91 02 3c 09 7f e0 3b
       0.011339574 0.0037031316 0.00796916 0.0068510813
000050 79 c2 ae 3b f6 7c 84 3c f1 e7 fb 3b 9c 81 5f 3b
       0.0053332415 0.016172867 0.0076875617 0.0034104353
000060 08 98 74 3b 61 87 90 39 f6 0d 44 3b ae 85 0c 3c
       0.0037322063 0.00027566685 0.0029915548 0.008576794
000070 30 e9 38 3c 90 d2 c0 3b 7c a5 d2 b9 41 ab f9 3b
       0.011286065 0.005884476 -0.00040177617 0.007619292
000080 cf 13 60 39 ab 55 6e 3b 59 b5 f6 3b 63 59 3a 3c
       0.00021369684 0.003636698 0.0075289425 0.0113738505
000090 58 85 ec 38 8b 65 05 38 6a d8 e7 37 f6 b5 19 38
       0.00011278194 3.180424e-05 2.7638122e-05 3.6647507e-05
0000a0 ca 77 33 38 d7 4d 09 39 39 d0 e7 38 10 db bb 37
       4.2788488e-05 0.00013094336 0.00011053723 2.2394146e-05
0000b0 a0 ea 5b 36 bc d3 a7 b8 c1 6e 1b 39 07 39 58 b8
       3.2770113e-06 -8.002619e-05 0.00014823211 -5.1551524e-05
0000c0 b7 bd e2 38 7f 07 0b 39 ef f8 9b 38 70 0d bc 38
       0.00010811857 0.00013258866 7.4373434e-05 8.9670415e-05
0000d0 5d 4a ea 38 f9 ab 20 38 a4 47 f5 b7 a7 48 aa 37
       0.00011171841 3.8307135e-05 -2.9239636e-05 2.029941e-05
0000e0 06 6a a4 38 81 0a a9 b8 02 24 6b b7 93 28 19 36
       7.839878e-05 -8.0605045e-05 -1.4015475e-05 2.2822394e-06
0000f0 14 d6 56 b8 c8 0f 34 38 e5 29 b6 38 db f1 80 b8
       -5.122095e-05 4.293004e-05 8.68624e-05 -6.148565e-05
000100 55 0e 0c 37 e2 91 86 b8 be 0e fc 38 1d d0 4e b8
       8.347987e-06 -6.416791e-05 0.00012019042 -4.9308048e-05
000110 b3 0a 0c b9 9d 07 b6 b8 23 6e 31 b9 95 d0 f2 b7
       -0.00013355426 -8.679854e-05 -0.00016921065 -2.8945777e-05
000120 67 1a fd ba a4 bc 34 bc 1e fc 39 3a 68 cf 45 bb
       -0.0019310237 -0.011031304 0.00070947583 -0.0030183438
000130 47 b1 8a bb 5c 3d f9 b7 39 ae 3a 3b 6f 1a bb 3b
       -0.004232559 -2.9711686e-05 0.0028485192 0.0057099382
000140 56 85 22 bb ad e2 48 3b 68 b9 93 3a 75 e2 09 3b
       -0.0024798713 0.0030652687 0.0011270465 0.002103952
000150 d0 ef 8d 3b d3 10 6c 3b 9c 32 a1 3b 83 a2 af 3b
       0.0043315664 0.003602077 0.004919363 0.005359949
000160 20 f9 8a 3b 81 74 c1 ba 38 48 3b 3b 48 4b 1e 3c
       0.004241124 -0.0014759452 0.0028576981 0.009661503
000170 69 7e 56 3c 0d 8d 5c 3c b0 6f 03 3c a4 fb e6 3a
       0.013091662 0.0134613635 0.008022234 0.0017622602
000180 38 19 37 3a 75 fb e4 3b 8b 8a 43 3c 36 72 58 3c
       0.0006984654 0.006987984 0.011934887 0.013210824
000190 4a 9c e8 3b cc 01 c7 3b 1e e5 ef bb 33 80 bc 3b
       0.0070987092 0.0060732123 -0.007321014 0.005752587
0001a0 3c da b7 3b 72 80 00 bb b3 02 59 3b 75 95 84 bb
       0.0056107324 -0.001960781 0.003311318 -0.004046137
0001b0 17 c1 1d 3c 8d 17 4d 3c 07 ae 28 3c 66 35 ab 3b
       0.009628556 0.012517822 0.010295398 0.0052248714
0001c0 bb b0 56 3c 48 c1 8b 3c 11 6d 96 3b 3b 59 df 3b
       0.013103659 0.017059937 0.0045906384 0.006816057
0001d0 4f d4 a4 3b c1 29 6a 3a d3 13 0c 3c c4 03 1d 3c
       0.005030192 0.00089326134 0.008549648 0.009583417
0001e0 3b 43 30 3c 33 89 ff 3b 92 35 6b 3c 7d 2f 22 3c
       0.0107582165 0.007798338 0.014356034 0.009899017
0001f0 4e 9f 31 3c 99 4c d2 3b 30 d2 2a 3c eb eb 6c 3c
       0.010841204 0.0064178226 0.010426089 0.014460544
000200 9e 48 20 3c aa 5a 58 3c 6a 62 22 3c c2 e4 46 3c
       0.009782938 0.01320521 0.009911159 0.012139501
000210 c4 c1 2e 3c 97 e7 50 3c f6 89 78 3c 6f a7 2c 3c
       0.0106663145 0.012750528 0.015169611 0.010537966
000220 fd 42 7c 3c 79 c4 4d 3c a8 9d 44 39 b3 2d b4 3b
       0.015396831 0.01255905 0.00018750748 0.005498612
000230 60 11 71 3b 9e 75 4d 3b 47 e8 02 b9 86 12 5a 3a
       0.0036784038 0.0031350623 -0.00012484296 0.00083188
000240 a5 99 a8 3c 3b ca 7b 3c db b9 50 3c 6b 13 26 3c
       0.020581076 0.01536804 0.012739624 0.010136466
000250 b5 6e 7b 3c 51 3c e3 3c b1 df 04 3c 82 a2 3e 3c
       0.015346219 0.027738722 0.008109973 0.011635425
000260 12 1d d1 3c cd d3 f4 3b 5d 5e eb 3c cb f5 45 3c
       0.025526557 0.0074715377 0.02873152 0.012082527
000270 16 c7 0f 3c b4 3f 45 3c be f1 57 3c 49 7c a5 3b
       0.008775493 0.012039114 0.013180194 0.0050502163
000280 42 8f 75 3c eb 7b 44 3c 33 e2 88 3c c7 24 c0 3b
       0.014987769 0.011992435 0.016709423 0.005863759
000290 e6 b6 24 3c 7f 14 38 3c 02 44 40 3c fc be a6 3b
       0.010053372 0.011235355 0.011734964 0.005088685
0002a0 66 93 a7 3c b0 9e ba 3b c5 2c 3c 3c 37 a9 6e 3c
       0.020456027 0.0056951866 0.011485283 0.014566711
0002b0 cf 2c 57 3c 7d 7c 08 3c f3 66 0d 3c 76 cb 23 3c
       0.013133242 0.008330462 0.008630502 0.009997239
0002c0 93 31 14 3c 5c f8 47 3c e7 da 1a 3c 5c 8b 33 3c
       0.009045023 0.01220521 0.009451604 0.010958519
0002d0 d8 f2 4f 3b dc b8 58 3b a6 c0 ee 3a 83 03 f7 b9
       0.003173044 0.003306917 0.0018215373 -0.00047114128
0002e0 12 89 22 3b a7 b2 0b 3b 76 89 1d 3b be e9 01 3b
       0.0024800939 0.0021316202 0.0024038232 0.001982316
0002f0 03 b5 9c 3a 4d b3 10 b9 06 e1 11 3a eb fe 5a 3a
       0.0011955801 -0.00013799705 0.0005564842 0.0008354026
000300 fe b8 3f 3a 89 05 a2 ba db a3 60 b9 15 e9 47 ba
       0.0007313638 -0.0012361269 -0.00021423346 -0.00076259795
000310 4f 8b 4f ba cb ec 24 3a 6a bd d2 39 7c 40 1e bb
       -0.0007917182 0.00062913884 0.00040195446 -0.0024147322
000320 e4 f9 81 39 8d 8e 7f b8 69 1d 6e ba 0b c4 fb ba
       0.0002479098 -6.09295e-05 -0.0009083362 -0.0019208206
000330 94 da 4c 3b 1f 42 99 3a 2f 4e 2e ba 72 15 28 ba
       0.0031258212 0.0011692679 -0.00066492235 -0.0006411887
000340 8e 54 3a 39 35 a9 b2 3a e1 86 ea 3a 34 0c 3c 38
       0.00017769841 0.001363075 0.001789298 4.4834058e-05
000350 97 5d 47 ba 7c 4e 87 3a 6d 8b a7 ba 04 28 71 3a
       -0.00076051935 0.0010323073 -0.0012782641 0.0009199383
000360 d4 49 fb 3b 7a 94 e5 3b 7c 69 be 3b 9c 8e d7 ba
       0.007668713 0.007006225 0.0058109146 -0.0016445699
000370 b5 34 95 3b 74 5e 39 3c d2 7a ce 3b f3 c9 f2 3b
       0.0045534023 0.011314023 0.0063012624 0.007409328
000380 6a b4 3e 3c a4 b2 8e 3a 2b 91 15 3c d9 5a 32 3c
       0.011639694 0.0010886979 0.009128849 0.010885918
000390 97 2b b4 3b 3f b1 a1 3b 49 28 60 3c a8 61 8a 3c
       0.0054983604 0.0049344595 0.01368148 0.01689227
0003a0 73 6e 77 3c 0e bb 62 3c 4c 22 84 3b a2 ac 87 3b
       0.015102017 0.013838543 0.004032409 0.0041404525
0003b0 43 a9 93 3c 29 c3 5b 3c 4b ec 2c 3c 51 cc 43 3c
       0.018025046 0.013413229 0.0105543835 0.011950568
0003c0 c3 cc 4e 3a 91 d4 cd 3b 40 e8 6c 3b f4 78 49 3c
       0.0007888788 0.0062814434 0.0036149174 0.012296904
0003d0 2c 80 55 3b e1 44 62 3c fd a0 8b 3b b3 e3 b6 3b
       0.0032577617 0.013810367 0.0042611347 0.005581343
0003e0 44 a4 d1 3b 81 01 41 3c 7b da cc 3b 88 cf 41 3c
       0.006397756 0.011780144 0.006251631 0.011829264
0003f0 35 3f 8a bb 4d 81 ba bb a2 74 31 bc e7 31 18 bc
       -0.0042189606 -0.0056916834 -0.01083103 -0.009289241

bias f4 [120]
000000 78 b4 b9 3c b5 d0 64 3d 19 6f 9d b7 2f ea 49 b8
       0.022669062 0.0558631 -1.8767592e-05 -4.8140235e-05
000010 80 1a 01 3c 72 e0 a1 3c 58 7e 1c 38 fb d9 a5 3c
       0.007879853 0.019760344 3.7310965e-05 0.020245543
000020 66 01 03 3d f3 18 db b8 90 ff aa 3b 8e 4c b2 39
       0.031983756 -0.00010447381 0.0052184537 0.00034007843
000030 2f 2e 9e b8 eb 6c 3f 3d 3d 26 b7 bc 69 3d f4 3c
       -7.5426295e-05 0.04673473 -0.0223571 0.029814439
000040 f5 70 ae 3d c8 df 49 b9 34 3b 71 3d 95 82 82 3d
       0.085176386 -0.00019252219 0.05889435 0.06372563
000050 46 fd 68 b7 8c 84 fc 3a f5 5b cf 3c 52 ad 88 3c
       -1.3887247e-05 0.0019265576 0.025312403 0.016684208
000060 21 92 c8 3b b8 e8 67 3c 34 2b b9 3d 36 79 bb 3c
       0.0061209355 0.014154606 0.090414435 0.022884946
000070 58 c3 8b b8 e4 1b e0 ba 73 0b db 3a ea e8 0c 3d
       -6.664422e-05 -0.0017098156 0.0016711786 0.03440181
000080 7a ba a8 bc 2d de 3c 3c 6b 2a 1a 36 f1 92 f8 3c
       -0.020596731 0.01152758 2.2972479e-06 0.030343505
000090 1b ac 2c b8 9b 96 09 3d 29 20 9c b9 ae be 8a 3d
       -4.116828e-05 0.033590894 -0.000297786 0.067746505
0000a0 3d 69 84 3b 32 c9 49 3d 13 2b bf 3c 6a 68 33 38
       0.0040408657 0.04926414 0.02333597 4.277417e-05
0000b0 32 76 0e 3d 78 2c c6 b8 8c 69 2d 38 38 1a 6f 3c
       0.03478069 -9.449659e-05 4.1344712e-05 0.014593653
0000c0 d6 32 98 3b f1 ce be 3b d4 ad 44 3d 10 c6 42 3c
       0.004644732 0.005823009 0.048017338 0.011888042
0000d0 96 73 75 39 76 ea 98 38 ea 7e 1d 3d c0 b8 62 36
       0.0002340808 7.2915966e-05 0.038451113 3.3784163e-06
0000e0 99 c4 83 bc f1 43 4e 38 e8 95 39 3a 46 26 8d 38
       -0.016084956 4.9177503e-05 0.0007079528 6.730533e-05
0000f0 25 57 8b 3c bb 02 f9 3c ef 74 53 3c 76 43 a2 3c
       0.017009327 0.03039681 0.012906297 0.019807559
000100 4b 1c 16 bb 34 7c 73 3b d4 80 5d 3b 77 32 c3 3d
       -0.0022905048 0.0037152888 0.0033798711 0.0953111
000110 f6 fa 88 b8 3d 7e 11 3d fb cb 07 b7 64 ed 17 3d
       -6.5317305e-05 0.03552078 -8.09412e-06 0.037091628
000120 0a c1 22 38 46 93 bb b7 6f b4 a4 bb e7 c5 35 b8
       3.880359e-05 -2.2360717e-05 -0.005026392 -4.3338074e-05
000130 32 f3 01 3d ef 35 8c bc 3e f7 27 3b dd ba c4 3b
       0.03172607 -0.017115561 0.0025629546 0.006003721
000140 c6 b8 e2 3c 10 ec 1c ba fb d1 f8 38 fc 11 ce 3c
       0.027675997 -0.0005986104 0.000118646734 0.02515506
000150 93 86 9d 3c c3 dd 31 3d 55 bf c9 3b bf a7 b9 3b
       0.019229209 0.04342438 0.0061568418 0.005665749
000160 53 1a 97 3d a4 74 7d 38 80 88 d5 3c 3c 57 22 3d
       0.07378068 6.042853e-05 0.026066065 0.039633974
000170 a5 05 f4 3c a6 fb a2 ba b3 e6 86 3b 23 a4 43 3d
       0.029787848 -0.0012434616 0.004116857 0.047763955
000180 e4 9c 95 3c 17 ad 6f 3c 47 13 34 b9 4d 12 01 bb
       0.018263288 0.01462867 -0.00017173319 -0.0019694746
000190 1e 24 8b 39 23 b2 6b b9 0a 82 b3 3b af 36 2c b8
       0.00026539055 -0.00022477708 0.0054781483 -4.1058924e-05
0001a0 0b 5d 60 3d a0 17 7a 3c f4 6b 8c 38 91 f3 9b 3b
       0.054776233 0.015264422 6.695828e-05 0.00475926
0001b0 10 7e a3 b8 08 53 29 3d 7d 5f 9b ba 37 2f e0 3c
       -7.795927e-05 0.04133895 -0.0011854019 0.027366264
0001c0 ce 77 af 3c 95 f6 9e 3c 72 97 bb 3c 58 da 62 3b
       0.021419432 0.019404689 0.022899363 0.0034615006
0001d0 f4 df 12 b8 34 a7 04 38 4e dd 34 3c fc e5 01 3d
       -3.5017685e-05 3.1626972e-05 0.011039091 0.03171347

weight f4 [84, 120]
000000 29 7d 96 39 62 e6 0e b9 70 96 34 b8 fe 07 eb 38
       0.0002870348 -0.00013628 -4.305545e-05 0.00011207162
000010 5d 14 39 39 2e 0b ac 39 02 9e 29 b8 72 e3 8d 39
       0.00017650561 0.00032814726 -4.0439896e-05 0.00027063076
000020 45 f7 dc b9 c6 67 17 39 42 91 aa b8 c5 60 0f b9
       -0.000421459 0.00014439141 -8.133288e-05 -0.00013673592
000030 41 f0 19 39 23 56 94 b9 4a e8 2a 39 5d 9e 05 b9
       0.00014680719 -0.00028292937 0.00016298998 -0.00012742863
000040 84 e8 0f ba 94 98 23 39 21 7b 59 39 df 28 59 39
       -0.00054896646 0.00015601731 0.00020740602 0.00020709958
000050 62 33 f2 38 e9 0b 40 38 fa 65 d9 39 5e a4 44 3a
       0.0001154903 4.578746e-05 0.00041465444 0.0007501299
000060 7e 0c 37 39 48 b6 3d 39 ec 51 4a ba 0a 12 c6 b8
       0.00017456894 0.0001809235 -0.0007717896 -9.444736e-05
000070 58 4d ef 37 4b df 13 39 3e 00 88 38 40 4d b0 b9
       2.8527036e-05 0.00014102196 6.4850305e-05 -0.00033626892
000080 1d a4 7c 3a f4 28 3d 37 a0 8b 63 b8 32 e4 8d b9
       0.0009637492 1.1274813e-05 -5.4251053e-05 -0.00027063634
000090 5e 4f 41 b8 b8 f1 70 38 53 27 06 39 bc 3c e2 b9
       -4.6088702e-05 5.7445577e-05 0.00012793885 -0.0004315133
0000a0 4c b3 9d 38 40 da 62 39 1c 0d 44 b8 25 6c 70 b8
       7.51974e-05 0.00021634344 -4.674225e-05 -5.7321176e-05
0000b0 e5 0a b8 b9 b8 38 c4 38 3f ac 6d b8 27 29 25 b9
       -0.00035103332 9.356573e-05 -5.666562e-05 -0.00015750957
0000c0 59 63 5f 39 27 9e b9 38 10 42 1b 3a bd e1 21 39
       0.00021303947 8.8509456e-05 0.0005922625 0.0001543825
0000d0 31 d5 e1 b8 cc 65 2b 38 c2 f6 4a 39 5e bb 80 38
       -0.00010768546 4.0864383e-05 0.00019356146 6.1384155e-05
0000e0 b6 8c 50 3a 61 a3 04 b9 f0 4d f2 b7 ca df ea 38
       0.0007955538 -0.00012649364 -2.888494e-05 0.000111996735
0000f0 b9 33 13 b9 32 50 89 37 59 53 80 b9 6b 8b 00 38
       -0.0001403828 1.6369017e-05 -0.0002447616 3.064742e-05
000100 b4 c7 df b7 d7 54 d7 b8 8e b3 c3 38 db 5d d6 b9
       -2.6676666e-05 -0.000102678016 9.331769e-05 -0.00040887189
000110 f7 a7 ad b8 0a 3f bc b9 f2 e7 18 b8 70 2e d8 b9
       -8.280569e-05 -0.00035905122 -3.645564e-05 -0.0004123333
000120 26 6c e7 38 d2 24 bb 38 f8 cd be 38 54 a4 03 39
       0.000110350826 8.923713e-05 9.098271e-05 0.0001255435
000130 1d bf 02 ba 23 22 80 39 3c 06 85 37 e5 3e a0 b8
       -0.00049875845 0.00024439496 1.5857739e-05 -7.6411096e-05
000140 3a 3f e8 b8 d2 c7 5b b8 9b 5a 20 b9 9d 75 ae 38
       -0.00011074399 -5.2399766e-05 -0.00015292542 8.318874e-05
000150 62 12 9c 37 b5 78 10 b9 21 cf 3f b9 04 4d 2a 39
       1.860521e-05 -0.00013777877 -0.00018292341 0.00016241154
000160 c7 4d 19 b9 19 e8 1e b9 13 7f 8d b6 fe a7 0d b9
       -0.00014620191 -0.00015154517 -4.216921e-06 -0.0001350939
000170 fc b5 e7 38 78 b3 3d 39 70 26 28 b9 29 7c 28 b9
       0.000110488356 0.00018091302 -0.00016036048 -0.00016067982
000180 93 54 1c 39 a1 32 3b b9 8c 3b 63 b8 f0 c2 28 39
       0.00014908826 -0.0001785257 -5.4176475e-05 0.00016094348
000190 8c ed bd 38 db e2 fc 37 91 a3 a1 35 9e b2 0b 38
       9.056469e-05 3.0146379e-05 1.2043039e-06 3.3306533e-05
0001a0 5d ab 10 b9 0d 49 8e 39 97 ce 20 39 50 87 56 b9
       -0.00013796748 0.00027138778 0.0001533575 -0.00020459038
0001b0 c0 ab 26 b8 27 fe 1c 38 99 54 69 36 e8 7b d3 39
       -3.973744e-05 3.7429996e-05 3.4768948e-06 0.00040337374
0001c0 45 81 33 b8 95 6b db 38 29 f8 97 b8 a4 4e d6 38
       -4.2797317e-05 0.000104627725 -7.2464645e-05 0.00010218963
0001d0 61 15 c1 b8 4f 4e b5 38 b9 8c f8 b6 29 2b 5d b9
       -9.206939e-05 8.645339e-05 -7.407358e-06 -0.00021092281
0001e0 71 6e 04 38 14 6c 10 b8 80 ee 99 37 db 6c a5 38
       3.157411e-05 -3.443293e-05 1.8350082e-05 7.888089e-05
0001f0 a8 fd 1a 39 ca 2a f5 38 8d cf f3 38 f1 3f 22 b9
       0.00014781079 0.000116904805 0.00011625802 -0.00015473344
000200 af 33 0a b9 5c cd a7 38 ba cb 23 b9 ac aa 34 38
       -0.00013179959 8.001432e-05 -0.00015620785 4.3074295e-05
000210 dc 1d 92 b8 e2 da 07 38 dd 08 90 37 a0 ff 6b 38
       -6.967384e-05 3.239036e-05 1.7170265e-05 5.6266435e-05
000220 b3 8f b4 38 c8 f8 10 39 87 28 23 b9 0a 14 09 39
       8.609835e-05 0.00013825588 -0.00015559989 0.00013072803
000230 1d 70 3b 37 4d 61 0c b9 61 e3 a2 38 3d 28 bc b8
       1.1172172e-05 -0.00013387688 7.7671146e-05 -8.9720335e-05
000240 d7 62 88 b8 b2 64 09 b9 d9 41 0a b8 0a 16 b9 38
       -6.503396e-05 -0.0001310285 -3.296309e-05 8.8255925e-05
000250 2f 59 31 38 56 f8 e5 38 19 9e 40 38 bd 59 41 38
       4.2283147e-05 0.00010965827 4.5923607e-05 4.609836e-05
000260 e3 89 80 b8 ef 80 d2 b8 a7 fc ae b7 2b d1 de 38
       -6.129199e-05 -0.00010037596 -2.0860067e-05 0.000106247455
000270 b4 5b 97 b8 1a 8d 51 b8 68 d2 b0 b7 3e 09 c5 b8
       -7.217322e-05 -4.9960894e-05 -2.1078813e-05 -9.3954135e-05
000280 60 60 f7 38 6d c9 98 38 35 b8 a3 37 6b 68 5b b7
       0.00011795829 7.285443e-05 1.9516892e-05 -1.3077729e-05
000290 29 7a bf 37 ea df 21 b9 7e cf bd 38 a8 0f a7 38
       2.282586e-05 -0.00015437571 9.050871e-05 7.966097e-05
0002a0 33 c9 3a b8 64 1c e0 b7 18 22 07 b7 43 e4 f1 b7
       -4.4533237e-05 -2.6716101e-05 -8.054565e-06 -2.8835731e-05
0002b0 17 74 26 b9 37 26 06 39 77 80 0e b9 a3 01 4e 38
       -0.0001587424 0.00012793472 -0.00013590032 4.911575e-05
0002c0 d4 09 80 37 1c 3a 36 37 19 04 07 b9 18 9c 0c b9
       1.5263366e-05 1.0861575e-05 -0.0001287613 -0.0001340959
0002d0 0d 8c 15 39 c1 81 d0 38 43 8a 1b b9 38 a2 cc 36
       0.0001426192 9.9423814e-05 -0.00014833458 6.0985585e-06
0002e0 d4 64 9e b7 36 55 01 b8 77 03 a7 b8 26 8c 9b 38
       -1.888202e-05 -3.0835356e-05 -7.963826e-05 7.4170806e-05
0002f0 98 6a 20 39 ee c1 c1 38 5f b3 fe b8 9f 93 ab b8
       0.00015298498 9.2390794e-05 -0.00012145074 -8.181412e-05
000300 93 ca bc 38 2f 1b ef b8 b4 30 4b b8 37 d4 d4 b8
       9.002271e-05 -0.000114014714 -4.844433e-05 -0.00010148476
000310 76 f6 2d 38 77 df 88 b8 ce 10 63 38 6c da 9b b8
       4.147595e-05 -6.526609e-05 5.4136668e-05 -7.43166e-05
000320 71 c4 c3 38 65 f5 15 39 b0 f6 cb b8 81 5b dc b8
       9.334915e-05 0.00014301164 -9.7257434e-05 -0.000105074614
000330 28 b2 f4 b8 31 42 22 b7 9d 45 bb 38 a7 5e b1 b8
       -0.00011668011 -9.671364e-06 8.929821e-05 -8.457648e-05
000340 53 88 4d 38 df c6 1c b9 39 49 12 b9 94 0e 92 38
       4.900277e-05 -0.00014951405 -0.00013950923 6.964538e-05
000350 b9 b6 ba 38 28 41 d4 38 f7 d1 bc 37 91 66 6b 38
       8.903206e-05 0.00010121084 2.2509119e-05 5.612389e-05
000360 91 d1 bd b8 8f a2 08 39 3a 69 ce b8 53 af e4 38
       -9.051257e-05 0.00013030528 -9.8424454e-05 0.00010904544
000370 d7 fe a5 b8 12 ac c1 b8 24 b9 a4 b8 84 b0 8f 37
       -7.915281e-05 -9.235008e-05 -7.8546145e-05 1.7129125e-05
000380 92 ff bf 38 6f f7 ac 38 d4 82 fb 38 ca 84 b0 37
       9.1551934e-05 8.247687e-05 0.00011992981 2.104267e-05
000390 54 77 8c 38 98 3c e0 b8 45 94 fc b8 dd bb 01 39
       6.697947e-05 -0.00010692439 -0.00012043914 0.00012372383
0003a0 fe 80 0f b9 e7 a7 17 38 ab 49 bd b8 83 7c b9 b8
       -0.00013685596 3.6157577e-05 -9.025944e-05 -8.8446795e-05
0003b0 fc 26 1a b9 b7 16 da 38 ea ff b5 37 b5 c0 17 39
       -0.00014701107 0.00010399281 2.169605e-05 0.00014472271
0003c0 5a 38 e1 3c 27 11 1e bb eb 0f d4 38 e7 e6 28 b9
       0.02749269 -0.002411911 0.00010111913 -0.00016107746
0003d0 78 1f 4e 3d 20 59 8c 3d 09 a1 13 b9 f9 33 6a 3d
       0.05032298 0.06852937 -0.00014079003 0.05717847
0003e0 c9 68 6f bd f9 37 6f 39 f8 bc 6c bc ad 96 d0 ba
       -0.05844954 0.00022813668 -0.014449351 -0.0015914046
0003f0 a5 80 ff 39 79 b2 4a bd 00 6b 32 3d 94 bd 29 bd
       0.00048733238 -0.04948661 0.043559074 -0.04144056

bias f4 [84]
000000 10 67 2e b9 5d d1 c4 b8 27 88 8b bc f8 9b 9b 3d
       -0.00016632327 -9.385005e-05 -0.017032696 0.07598108
000010 5a ba 90 b7 48 6f ef 3c 85 d3 b2 b8 20 db 17 3d
       -1.7252914e-05 0.029227868 -8.5271e-05 0.03707421
000020 31 98 ff b8 0a 6e b9 b8 15 f9 a3 b7 b0 cc 54 bc
       -0.000121876954 -8.841984e-05 -1.9547102e-05 -0.012988254
000030 7c d8 02 3d 16 bd af 35 24 18 19 3c 7d cd 72 3c
       0.031944737 1.3093547e-06 0.0093441345 0.0148195
000040 40 8a 21 bb 72 59 98 bc 86 f6 39 b9 e7 98 42 3c
       -0.0024649054 -0.018597338 -0.00017734812 0.011877275
000050 e5 84 b9 b7 3e 65 08 3c 05 4f fb b8 83 dc 94 3d
       -2.2115602e-05 0.008324919 -0.00011983331 0.07268622
000060 58 1c 93 3c ef 96 85 b7 c4 c2 23 37 62 ac 7a 3d
       0.017957851 -1.592512e-05 9.7609045e-06 0.061199553
000070 9f 40 94 3d 79 55 2e bc bc 2c 11 bb 40 83 8e bb
       0.07238888 -0.010640495 -0.0022151908 -0.0043491423
000080 2c 48 54 b8 92 ce 87 bb 26 56 67 3d 1c 83 0e 37
       -5.0611954e-05 -0.004144498 0.056478642 8.494386e-06
000090 0d 22 3c b8 17 0c a6 3d 39 61 74 3d 63 8f 14 39
       -4.4854405e-05 0.08107775 0.05966303 0.00014167796
0000a0 ba e5 a0 b7 4a c7 9a b8 5e 98 a2 3d 95 56 d7 3c
       -1.9180461e-05 -7.380413e-05 0.07939218 0.026286403
0000b0 f4 d1 db 38 3e 90 07 b7 6e ac 8c bc d0 e6 8f 3d
       0.000104818406 -8.080211e-06 -0.017172065 0.07026446
0000c0 73 41 87 3c 3f ca 40 38 e7 76 3b bc bf 17 88 38
       0.0165107 4.5964724e-05 -0.011441923 6.4894084e-05
0000d0 c5 a3 34 3c da 2d 54 ba 18 de 1b 37 c7 0f ed b8
       0.011025374 -0.00080939906 9.29043e-06 -0.000113039794
0000e0 7f 83 1d 39 29 c3 89 3c c0 37 1c b8 c5 a1 20 38
       0.00015021673 0.016816692 -3.724522e-05 3.8297632e-05
0000f0 60 90 b7 39 c2 4e b7 3c ba 64 dd 3d 80 fc 37 3d
       0.00035012048 0.022376422 0.10810228 0.044918537
000100 75 26 d5 b8 e4 29 f3 b9 36 51 8c 3c f3 da c6 3d
       -0.00010163795 -0.00046379783 0.017128568 0.0970973
000110 1b 55 5a 3d 1e cd 23 3d a1 81 c8 b8 fb bd b4 3c
       0.05330382 0.039990537 -9.5608884e-05 0.022063246
000120 ac f8 07 b9 5c 91 ad b8 b6 cd 28 3c 4b 70 ca 37
       -0.00012967241 -8.276358e-05 0.010302952 2.4132567e-05
000130 be 13 ce 3c a0 c3 a2 3c 22 b2 8e 3d 80 3f e5 3b
       0.025155898 0.019868672 0.0696757 0.006996095
000140 b1 ce a0 3d b6 52 85 b8 9d 9f 45 3d 0e a4 2b 3b
       0.07851923 -6.35734e-05 0.048247922 0.0026190314

weight f4 [10, 84]
000000 3e f3 9c ba 91 89 a9 b8 20 ab 26 be ce e2 c9 3e
       -0.0011974347 -8.084172e-05 -0.16276217 0.3943085
000010 c6 99 12 38 3a c8 86 3c 59 6a d4 38 c1 54 c4 3d
       3.4952325e-05 0.016452897 0.000101287565 0.09586478
000020 c8 10 e2 38 c2 9d 22 b8 fb 09 97 b6 a8 fb fa bd
       0.000107796455 -3.8770733e-05 -4.5013126e-06 -0.12255031
000030 4a 81 5e 3d 4d f6 62 3a 04 6f ce 3c de 4d 65 3b
       0.05432252 0.00086579175 0.02519942 0.003498904
000040 7f 29 d0 bc 45 0a 34 be 33 a6 12 b9 82 e4 3e bd
       -0.025410412 -0.17582043 -0.00013985559 -0.04660464
000050 80 c0 a2 38 52 42 1b 3c 12 f9 3f 39 32 86 ab 3e
       7.760618e-05 0.009476261 0.00018307965 0.3350082
000060 06 7b 02 3d 01 3b 4a 39 22 53 3e b9 e6 15 90 3e
       0.031855606 0.00019286202 -0.00018150781 0.28141707
000070 06 e5 ac 3e fe 1b 12 be 62 db a1 bc 43 ad b3 bd
       0.3376848 -0.1426849 -0.01975793 -0.087732814
000080 2d 0c 26 b9 00 00 18 be 16 47 76 3e 59 20 05 b8
       -0.0001583553 -0.1484375 0.24050555 -3.1739797e-05
000090 cd 41 29 b9 6e b3 d8 3e e3 74 72 3e 2d f5 e8 38
       -0.00016141609 0.42324394 0.23677401 0.000111082896
0000a0 76 8d 1a 37 77 2d 43 39 0c c4 bb 3e e8 22 b8 3b
       9.212052e-06 0.00018613586 0.3667301 0.0056193955
0000b0 c8 51 ac b8 fb 89 ad 37 b2 dd 24 be 7a 26 a5 3e
       -8.216832e-05 2.068746e-05 -0.16100195 0.32255918
0000c0 d1 a0 b0 3d 8b dd 22 b9 d9 d6 da bd 03 56 5e b8
       0.08624423 -0.00015532055 -0.1068551 -5.300903e-05
0000d0 26 b8 68 3d 4c 17 87 bc 9c a3 ec b7 96 b3 f7 b8
       0.056816243 -0.016490601 -2.8209579e-05 -0.00011811328
0000e0 72 71 f3 36 e9 2d 9d 3d d4 5a bd b8 d6 85 61 b9
       7.255171e-06 0.07674772 -9.02914e-05 -0.0002150753
0000f0 1d 85 14 39 57 75 ec 3d 84 4d ce 3e bd e2 70 3e
       0.00014163968 0.11545818 0.40293515 0.23523994
000100 53 8b 1e 38 a2 b9 a7 bb f9 85 c2 bc 9f a5 b0 3e
       3.779989e-05 -0.0051185647 -0.023745524 0.3450136
000110 8e 78 04 3e bb 16 10 3e 2e 43 8b b8 58 a0 0b 3d
       0.12936613 0.14071171 -6.64055e-05 0.034088463
000120 fd 74 f6 38 6f 2e 73 38 2f 87 35 bd 91 76 dc b5
       0.00011751985 5.797896e-05 -0.044318374 -1.6425785e-06
000130 de cd 8d 3d b1 d5 d2 3d 43 f3 85 3e a3 ce a5 3b
       0.06924032 0.10294665 0.26162156 0.0050600334
000140 6d 62 b5 3e bf 45 aa b8 57 7c 80 3e 01 12 65 3c
       0.35426655 -8.119223e-05 0.25094864 0.013981343
000150 ca 96 e3 3a 39 a3 df b7 a0 db 89 3e 32 f7 47 be
       0.0017363664 -2.6659678e-05 0.26925373 -0.19527891
000160 5d 9c 36 b8 91 de b5 3e 0d 26 3b 38 fa a7 59 3e
       -4.3537806e-05 0.35521367 4.4619712e-05 0.21255484
000170 32 d7 09 38 e2 ca 27 b9 62 ba c5 38 97 b5 4d 3e
       3.286376e-05 -0.00016001941 9.4284085e-05 0.20088802
000180 f3 e4 8c 3e ad 74 3e ba 17 4d 4a 3d 2a ac 48 3e
       0.27518424 -0.0007265311 0.049389925 0.19596925
000190 88 e3 40 3d 11 f5 8f 3e cc 25 d6 39 60 25 a0 3e
       0.04709199 0.28116658 0.00040845422 0.31278515
0001a0 a9 a6 15 b9 f8 68 af 3d fd 4d 11 39 f7 85 43 bd
       -0.00014271833 0.08564943 0.0001385733 -0.04773518
0001b0 c3 05 19 3e 41 21 40 b9 8b 78 eb 38 30 af 21 bd
       0.14943604 -0.00018322935 0.00011228126 -0.039473712
0001c0 ff 6d 81 bd 6f ce 9b 3e 60 3a 00 3d 0d 30 5e 3e
       -0.06319808 0.30430934 0.03130567 0.21698017
0001d0 32 e6 38 b9 84 5d d4 3e fb 58 ca 3c c2 4e 77 37
       -0.00017633362 0.41477597 0.024700632 1.47406845e-05
0001e0 f7 30 f1 36 e6 98 5a be bb 78 a7 3d 61 ce 53 38
       7.18806e-06 -0.21347389 0.081773244 5.0498526e-05
0001f0 67 0b 9b b8 87 6f 9e b8 59 c4 63 bd 02 d9 b2 3e
       -7.3931e-05 -7.554801e-05 -0.055607174 0.3493119
000200 25 41 2d b8 1d 50 b8 b8 0a 36 88 3e 99 42 2d bd
       -4.1307085e-05 -8.788726e-05 0.2660373 -0.04229984
000210 a2 5f 2a bd 06 6f 2e b9 26 1f 32 3e 4e b9 0c 38
       -0.04159511 -0.00016635293 0.17394695 3.355118e-05
000220 6a 61 d1 bc e3 fc 2b 3d 03 ed a2 b8 48 05 e5 35
       -0.025559146 0.04198922 -7.768909e-05 1.7063367e-06
000230 68 95 04 39 b1 87 e2 bb 22 e5 6c 38 d0 f5 7d 3a
       0.00012644159 -0.0069131483 5.648018e-05 0.0009687813
000240 f2 24 59 3a 6b 1e 68 bd 6e 86 6d 3e 12 9a f3 bd
       0.00082833983 -0.056669634 0.23195812 -0.11894621
000250 97 24 df b8 ff f5 29 3c dd 52 a0 3e 7e f7 85 3e
       -0.00010640284 0.010373591 0.3131322 0.26165384
000260 21 6f ab 3e f3 f3 e1 3d 58 78 c4 b8 97 f5 4a 3e
       0.33483222 0.11032858 -9.368424e-05 0.19820248
000270 c6 4d 30 38 03 28 31 38 62 c8 91 3e e5 25 36 b9
       4.2034102e-05 4.2237352e-05 0.28473192 -0.0001737099
000280 c2 ba 06 3e 6f 79 45 bd 42 3c 12 3e c9 2b a9 3d
       0.1315718 -0.04821151 0.14280799 0.082603045
000290 84 1c ea bc c1 1f ce b8 50 cd ff bd 4f 7c f0 bb
       -0.02857805 -9.82876e-05 -0.12490332 -0.0073390375
0002a0 42 fd 77 b9 ae 80 f7 b6 b8 e1 57 bc 7e 11 cd bc
       -0.00023650102 -7.376154e-06 -0.013176374 -0.025032755
0002b0 dc 3f fe b7 db 2d 3e bd 6f 51 e7 b8 04 98 1e bd
       -3.0308896e-05 -0.04643045 -0.000110301065 -0.038719192
0002c0 a4 a2 80 b8 f6 3d 17 39 b7 0c 47 b9 8e ae 1e bc
       -6.13381e-05 0.00014423564 -0.00018982856 -0.009685172
0002d0 84 48 28 bd 16 32 1a b8 e9 1c 17 bc 71 6c cd bc
       -0.04108478 -3.6763107e-05 -0.009223201 -0.025076123
0002e0 a7 1b 38 bb e4 86 59 bc 35 2e 9f 38 1d 0d 08 bd
       -0.0028092654 -0.013276789 7.5903175e-05 -0.03321563
0002f0 ef 08 ac b7 7a d0 41 bc 39 3b 85 b7 9a d0 13 bd
       -2.0508158e-05 -0.01182949 -1.5882413e-05 -0.03608761
000300 ed bb ba bc 3e d8 13 39 1c b6 74 38 51 02 f8 bc
       -0.022794688 0.00014099569 5.8343736e-05 -0.030274542
000310 01 72 0c bd 05 a9 a5 bc 65 29 a5 ba e2 03 84 bc
       -0.03428841 -0.020222196 -0.0012600838 -0.016115133
000320 ae 58 0f b9 cc 84 08 bd 4a ff 07 bd 32 a2 a4 b7
       -0.00013670578 -0.03332977 -0.033202447 -1.9625852e-05
000330 fe a9 96 38 f4 b7 d5 bc 58 a8 22 bd 89 ec 7c b7
       7.184221e-05 -0.026088692 -0.039711326 -1.5075443e-05
000340 08 a6 e9 b5 6e 23 66 38 f0 b8 1f bd af 04 36 bd
       -1.7408174e-06 5.486927e-05 -0.03899473 -0.04443806
000350 26 6b ca b8 82 ac 3c b9 8e e2 59 bc 5e 6b 0f bd
       -9.6520685e-05 -0.00017993341 -0.013298644 -0.035014503
000360 e9 fc ba bb 82 a2 04 b9 bd e7 07 bc d7 f7 e0 38
       -0.005706419 -0.0001264904 -0.008294997 0.00010727316
000370 9f 57 7d bb da 35 4b bb 34 b0 2a b9 b1 87 cb b7
       -0.0038656963 -0.003100744 -0.00016278104 -2.4262672e-05
000380 1f e5 af b8 6b 4a 10 bc 41 08 08 b8 c4 66 80 b9
       -8.3873274e-05 -0.008806805 -3.2432614e-05 -0.0002449063
000390 df 58 81 b9 8b 70 f2 bb aa 37 a2 bd 77 55 70 bc
       -0.00024671011 -0.00739867 -0.07920773 -0.014668814
0003a0 88 23 14 b9 5c 77 53 ba 81 8e 14 bd 9a 89 9b bd
       -0.00014127616 -0.0008066797 -0.036268715 -0.07594605
0003b0 90 26 6d bd 7f ef ff bc 30 1b de b8 33 87 ee bc
       -0.057898104 -0.03124213 -0.00010590849 -0.029117202
0003c0 10 f0 39 b9 bc 80 0c b9 d7 3f f6 bc 67 a2 d3 b8
       -0.00017732405 -0.00013399398 -0.030059738 -0.00010091514
0003d0 08 6d cc bc 5b 7a e4 bb de 26 4e bd 56 bd 35 bc
       -0.024954334 -0.0069725937 -0.050330035 -0.0110925045
0003e0 86 ed 26 bd f8 5d 15 39 a2 7d 82 bc 0f bd 81 ba
       -0.040753864 0.00014244753 -0.015929047 -0.0009898263
0003f0 78 16 1e b8 da b8 4a 38 95 95 57 bc f0 08 cc bc
       -3.769106e-05 4.833271e-05 -0.013158222 -0.024906605

bias f4 [10]
000000 c8 99 77 3e bc 14 8c 3d a9 00 1f bd f5 91 1e bd
       0.24179757 0.06839892 -0.03881899 -0.038713414
000010 65 3b 1f bd 30 4a 1f bd 2b 40 1e bd bb 40 1f bd
       -0.038875002 -0.03888911 -0.038635414 -0.03888009
000020 27 a5 1e bd 44 7d 1f bd
       -0.03873172 -0.038937822

momentum_buffer f4 [6, 3, 3, 3]
000000 ae 05 35 bc dc 02 63 3b 54 7d 82 bb 99 ad c1 3b
       -0.011048717 0.0034639155 -0.0039822254 0.005910587
000010 fa 8c 86 3c 5a 65 f5 3b b8 30 1e 3c 3f 9e c6 3c
       0.016424645 0.0074888887 0.00965517 0.02424538
000020 08 19 13 3c 71 bc c8 bc dc d9 cb bb 3c 57 55 bc
       0.008978136 -0.024503918 -0.006221039 -0.013021287
000030 60 ea 1c bc 4c 6d 87 3b 40 32 e3 ba 50 61 07 bb
       -0.009577364 0.0041329022 -0.0017333701 -0.0020657368
000040 6c 17 4e 3c 80 37 e2 38 c8 07 0a bd 00 33 73 bc
       0.012578826 0.000107868575 -0.033698827 -0.014843702
000050 52 03 c5 bc 20 86 6f bc e4 97 90 bb 04 ac 42 bc
       -0.024049435 -0.01461938 -0.004412638 -0.011881832
000060 42 9a dc bb 70 4d 8d 3b 57 7c 1e bc 7e 0e f8 bc
       -0.006732256 0.00431221 -0.0096732 -0.030280348
000070 b2 7d 67 bc 08 94 19 3c 24 de 62 bd b0 1d 2b bd
       -0.014129089 0.009373672 -0.05538763 -0.04177636
000080 20 28 5c bb ea 3f 60 bd 2f 53 02 bd 28 23 0a 3c
       -0.0033593252 -0.054748453 -0.03181761 0.0084312335
000090 38 e8 e5 3a 06 b1 95 3c e2 89 16 3d 08 a1 b0 bc
       0.001754052 0.018272888 0.03675259 -0.02156116
0000a0 2a 70 f5 bb b1 06 dd 3c 48 6c aa bc 34 8c 7d 3b
       -0.0074901776 0.02698073 -0.020803586 0.0038688304
0000b0 c2 a1 1e 3d 18 bd 1b 3d f5 f6 38 3d 24 1c 55 3d
       0.038728483 0.03802213 0.04515739 0.05202879
0000c0 7d e8 37 3c 44 23 89 3c 20 d2 1e 3d 80 66 42 3c
       0.011224863 0.016740449 0.03877461 0.011865258
0000d0 74 0b d2 3c 30 0f 3a 3d 97 a3 ca 3c cb 7c 4b 3d
       0.025640227 0.04542464 0.024736209 0.04967956
0000e0 ae a8 c4 3c d8 44 5a 3c 96 98 09 3d d0 84 a7 bb
       0.024006214 0.013322078 0.033592783 -0.005112268
0000f0 20 c1 09 bd 08 85 ef bc 3c 59 70 bc 2c 7b 34 3c
       -0.033631444 -0.029238239 -0.014669713 0.011015695
000100 11 6a 3d 3d 98 87 06 3d 68 49 87 bb c4 e1 e4 3c
       0.04624373 0.032844156 -0.0041286238 0.027939685
000110 a0 aa 1f 3b 3a 97 51 bd 3e e9 21 bd 40 2c b0 bc
       0.0024363175 -0.05116961 -0.039529078 -0.021505475
000120 46 84 41 bd 10 6d 32 bc fc 25 c2 bc 1e f9 14 bd
       -0.047245286 -0.01089026 -0.023699753 -0.03637039
000130 e8 fc 52 bc 00 53 39 bd f2 03 83 bd 86 b5 82 bd
       -0.01287768 -0.04524517 -0.06397237 -0.06382279
000140 3b 1a 73 bd a0 b2 67 3b b8 42 39 3d f8 e0 ad 3c
       -0.059351187 0.0035354272 0.045229644 0.021225438
000150 b8 12 4e bc 58 4c 8b 3c b0 a8 70 3c 8c cc d6 bc
       -0.012577705 0.017004177 0.014688656 -0.026220582
000160 80 71 61 bb ac 66 85 3c 4c b2 b9 bc ba 5d 99 3c
       -0.0034399927 0.01628431 -0.022668026 0.01872145
000170 ec dc 00 bc 24 a4 08 bd 4c 6e 98 bc 8c 5e c8 bc
       -0.007865172 -0.03335966 -0.018607281 -0.024459146
000180 54 c3 f0 bc cc 4f fe bc 70 fe cb bc e6 f1 5a bd
       -0.029390015 -0.03104391 -0.024901599 -0.05345335
000190 0a 25 6b bb ff 85 6a bc e5 38 86 bd 88 e3 32 bd
       -0.0035880231 -0.014314174 -0.065538205 -0.043674022
0001a0 58 9f 14 bd 8c 4d 6c bd be 8e 6d bd 9a df 49 bd
       -0.036284775 -0.057691142 -0.057997458 -0.04928551
0001b0 fa 4b 92 3c 40 d2 5a 3b 00 2e 4d ba 7a 73 85 3c
       0.017858494 0.003338948 -0.0007826984 0.016290415
0001c0 d8 c6 85 3a fa 96 8f 3b 42 f7 1b 3c 86 b6 01 3c
       0.0010206355 0.0043820115 0.0095194 0.007917052
0001d0 7e 6e 50 3c db 0a eb 3c 9a c5 ad 3c ed 0f b9 3c
       0.012721656 0.0286917 0.021212388 0.022590602
0001e0 27 72 e8 3c fb b0 90 3c b4 30 d3 3c af f3 b7 3c
       0.028374745 0.017662516 0.02578006 0.022455065
0001f0 b4 ee c1 3c dc c9 f7 3c 26 4a 13 3d d2 f2 0f 3d
       0.023673393 0.030247621 0.035959385 0.03514368
000200 79 e2 21 3d 46 c8 33 3d 9c 60 1d 3d 9c 75 44 3d
       0.03952262 0.043892168 0.038422212 0.047963724
000210 4e d9 27 3d ca db 36 3d 10 38 58 3d c0 89 56 3b
       0.040978722 0.0446432 0.05278784 0.0032735914
000220 00 1f 5b bc a6 e2 5a bd 4e a5 cf 3c 10 51 10 bb
       -0.01337409 -0.053438805 0.025347378 -0.0022020973
000230 1a 01 65 bd 56 d4 d7 3c c0 d4 4a 3b d1 72 04 bd
       -0.055909254 0.026346367 0.0030949563 -0.03233606
000240 bc 94 ce bb e8 b5 cf bb 10 85 32 bd ac 99 58 3c
       -0.0063043516 -0.0063388236 -0.04358393 0.013220232
000250 60 1d 17 3b 79 11 2e bd 40 5a 51 3c 50 72 83 3a
       0.002305828 -0.042497132 0.012777865 0.0010028575
000260 e6 d4 c1 bc a0 0c 4b 3b c8 ad ee 3b 67 b7 a3 bc
       -0.023661088 0.0030982867 0.0072839 -0.019984914
000270 fa 0d 9b 3c 54 07 7d 3c 59 f9 97 bc 10 6b 67 3c
       0.018927563 0.015443642 -0.018551515 0.014124647
000280 10 fd e4 3b ed a2 14 bc
       0.006988175 -0.009072048

momentum_buffer f4 [6]
000000 c9 aa da bc 00 b9 d3 bd d2 eb 0a be 08 c8 2a bd
       -0.026692765 -0.1033802 -0.13566521 -0.04169467
000010 cf 3c b3 3d ba 9f bd bd
       0.08751833 -0.09258981
